…
cuda
cuda
cuda
cuda
cuda
cuda
cuda
cuda
cuda
cuda
cuda
cuda
cuda
cuda
cuda
cuda
cuda
cuda
cuda
cuda
cuda
cuda
cuda
cuda
cuda
cuda
cuda
cuda
cuda
cuda
cuda
cuda
cuda
cuda
cuda
cuda
cuda
cuda
cuda
cuda
cuda
cuda
cuda
cuda
cuda
cuda
cuda
cuda
cuda
cuda
cuda
cuda
cuda
cuda
cuda
cuda
cuda
cuda
cuda
cuda
cuda
cuda
cuda
cuda
cuda
cuda
cuda
cuda
cuda
cuda
cuda
cuda
cuda
cuda
cuda
cuda
cuda
cuda
cuda
cuda
cuda
cuda
cuda
cuda
cuda
cuda
cuda
cuda
cuda
cuda
cuda
cuda
cuda
cuda
cuda
cuda
cuda
cuda
cuda
cuda
cuda
cuda
cuda
cuda
cuda
cuda
cuda
cuda
cuda
cuda
cuda
cuda
cuda
cuda
cuda
cuda
cuda
LESSR(
  (embedding): Embedding(38579, 32, max_norm=1)
  (layers): ModuleList(
    (0): EOPA(
      (batch_norm): BatchNorm1d(32, eps=1e-05, momentum=0.1, affine=True, track_running_stats=True)
      (feat_drop): Dropout(p=0.4, inplace=False)
      (gru): GRU(32, 32, batch_first=True)
      (fc_self): Linear(in_features=32, out_features=32, bias=False)
      (fc_neigh): Linear(in_features=32, out_features=32, bias=False)
      (activation): PReLU(num_parameters=32)
    )
    (1): SGAT(
      (batch_norm): BatchNorm1d(64, eps=1e-05, momentum=0.1, affine=True, track_running_stats=True)
      (feat_drop): Dropout(p=0.4, inplace=False)
      (fc_q): Linear(in_features=64, out_features=32, bias=True)
      (fc_k): Linear(in_features=64, out_features=32, bias=False)
      (fc_v): Linear(in_features=64, out_features=32, bias=False)
      (fc_e): Linear(in_features=32, out_features=1, bias=False)
      (activation): PReLU(num_parameters=32)
    )
    (2): EOPA(
      (batch_norm): BatchNorm1d(96, eps=1e-05, momentum=0.1, affine=True, track_running_stats=True)
      (feat_drop): Dropout(p=0.4, inplace=False)
      (gru): GRU(96, 96, batch_first=True)
      (fc_self): Linear(in_features=96, out_features=32, bias=False)
      (fc_neigh): Linear(in_features=96, out_features=32, bias=False)
      (activation): PReLU(num_parameters=32)
    )
  )
  (readout): AttnReadout(
    (batch_norm): BatchNorm1d(128, eps=1e-05, momentum=0.1, affine=True, track_running_stats=True)
    (feat_drop): Dropout(p=0.4, inplace=False)
    (fc_u): Linear(in_features=128, out_features=32, bias=False)
    (fc_v): Linear(in_features=128, out_features=32, bias=True)
    (fc_e): Linear(in_features=32, out_features=1, bias=False)
    (fc_out): Linear(in_features=128, out_features=32, bias=False)
    (activation): PReLU(num_parameters=32)
  )
  (batch_norm): BatchNorm1d(160, eps=1e-05, momentum=0.1, affine=True, track_running_stats=True)
  (feat_drop): Dropout(p=0.4, inplace=False)
  (fc_sr): Linear(in_features=160, out_features=32, bias=False)
  (RF): NeuralDecisionForest(
    (ensemble): ModuleList(
      (0): NeuralDecisionTree(
        (decision_fn_1): Linear(in_features=96, out_features=64, bias=True)
        (activation_fn_1): Tanh()
        (dropout_1): Dropout(p=0.2, inplace=False)
        (decision_fn_2): Linear(in_features=64, out_features=64, bias=True)
        (activation_fn_2): Tanh()
        (dropout_2): Dropout(p=0.2, inplace=False)
        (decision_fn_3): Linear(in_features=64, out_features=32, bias=True)
        (activation_fn_3): Sigmoid()
        (mu_dropout): Dropout(p=0.6, inplace=False)
      )
      (1): NeuralDecisionTree(
        (decision_fn_1): Linear(in_features=96, out_features=64, bias=True)
        (activation_fn_1): Tanh()
        (dropout_1): Dropout(p=0.2, inplace=False)
        (decision_fn_2): Linear(in_features=64, out_features=64, bias=True)
        (activation_fn_2): Tanh()
        (dropout_2): Dropout(p=0.2, inplace=False)
        (decision_fn_3): Linear(in_features=64, out_features=32, bias=True)
        (activation_fn_3): Sigmoid()
        (mu_dropout): Dropout(p=0.6, inplace=False)
      )
      (2): NeuralDecisionTree(
        (decision_fn_1): Linear(in_features=96, out_features=64, bias=True)
        (activation_fn_1): Tanh()
        (dropout_1): Dropout(p=0.2, inplace=False)
        (decision_fn_2): Linear(in_features=64, out_features=64, bias=True)
        (activation_fn_2): Tanh()
        (dropout_2): Dropout(p=0.2, inplace=False)
        (decision_fn_3): Linear(in_features=64, out_features=32, bias=True)
        (activation_fn_3): Sigmoid()
        (mu_dropout): Dropout(p=0.6, inplace=False)
      )
      (3): NeuralDecisionTree(
        (decision_fn_1): Linear(in_features=96, out_features=64, bias=True)
        (activation_fn_1): Tanh()
        (dropout_1): Dropout(p=0.2, inplace=False)
        (decision_fn_2): Linear(in_features=64, out_features=64, bias=True)
        (activation_fn_2): Tanh()
        (dropout_2): Dropout(p=0.2, inplace=False)
        (decision_fn_3): Linear(in_features=64, out_features=32, bias=True)
        (activation_fn_3): Sigmoid()
        (mu_dropout): Dropout(p=0.6, inplace=False)
      )
      (4): NeuralDecisionTree(
        (decision_fn_1): Linear(in_features=96, out_features=64, bias=True)
        (activation_fn_1): Tanh()
        (dropout_1): Dropout(p=0.2, inplace=False)
        (decision_fn_2): Linear(in_features=64, out_features=64, bias=True)
        (activation_fn_2): Tanh()
        (dropout_2): Dropout(p=0.2, inplace=False)
        (decision_fn_3): Linear(in_features=64, out_features=32, bias=True)
        (activation_fn_3): Sigmoid()
        (mu_dropout): Dropout(p=0.6, inplace=False)
      )
      (5): NeuralDecisionTree(
        (decision_fn_1): Linear(in_features=96, out_features=64, bias=True)
        (activation_fn_1): Tanh()
        (dropout_1): Dropout(p=0.2, inplace=False)
        (decision_fn_2): Linear(in_features=64, out_features=64, bias=True)
        (activation_fn_2): Tanh()
        (dropout_2): Dropout(p=0.2, inplace=False)
        (decision_fn_3): Linear(in_features=64, out_features=32, bias=True)
        (activation_fn_3): Sigmoid()
        (mu_dropout): Dropout(p=0.6, inplace=False)
      )
      (6): NeuralDecisionTree(
        (decision_fn_1): Linear(in_features=96, out_features=64, bias=True)
        (activation_fn_1): Tanh()
        (dropout_1): Dropout(p=0.2, inplace=False)
        (decision_fn_2): Linear(in_features=64, out_features=64, bias=True)
        (activation_fn_2): Tanh()
        (dropout_2): Dropout(p=0.2, inplace=False)
        (decision_fn_3): Linear(in_features=64, out_features=32, bias=True)
        (activation_fn_3): Sigmoid()
        (mu_dropout): Dropout(p=0.6, inplace=False)
      )
      (7): NeuralDecisionTree(
        (decision_fn_1): Linear(in_features=96, out_features=64, bias=True)
        (activation_fn_1): Tanh()
        (dropout_1): Dropout(p=0.2, inplace=False)
        (decision_fn_2): Linear(in_features=64, out_features=64, bias=True)
        (activation_fn_2): Tanh()
        (dropout_2): Dropout(p=0.2, inplace=False)
        (decision_fn_3): Linear(in_features=64, out_features=32, bias=True)
        (activation_fn_3): Sigmoid()
        (mu_dropout): Dropout(p=0.6, inplace=False)
      )
      (8): NeuralDecisionTree(
        (decision_fn_1): Linear(in_features=96, out_features=64, bias=True)
        (activation_fn_1): Tanh()
        (dropout_1): Dropout(p=0.2, inplace=False)
        (decision_fn_2): Linear(in_features=64, out_features=64, bias=True)
        (activation_fn_2): Tanh()
        (dropout_2): Dropout(p=0.2, inplace=False)
        (decision_fn_3): Linear(in_features=64, out_features=32, bias=True)
        (activation_fn_3): Sigmoid()
        (mu_dropout): Dropout(p=0.6, inplace=False)
      )
      (9): NeuralDecisionTree(
        (decision_fn_1): Linear(in_features=96, out_features=64, bias=True)
        (activation_fn_1): Tanh()
        (dropout_1): Dropout(p=0.2, inplace=False)
        (decision_fn_2): Linear(in_features=64, out_features=64, bias=True)
        (activation_fn_2): Tanh()
        (dropout_2): Dropout(p=0.2, inplace=False)
        (decision_fn_3): Linear(in_features=64, out_features=32, bias=True)
        (activation_fn_3): Sigmoid()
        (mu_dropout): Dropout(p=0.6, inplace=False)
      )
      (10): NeuralDecisionTree(
        (decision_fn_1): Linear(in_features=96, out_features=64, bias=True)
        (activation_fn_1): Tanh()
        (dropout_1): Dropout(p=0.2, inplace=False)
        (decision_fn_2): Linear(in_features=64, out_features=64, bias=True)
        (activation_fn_2): Tanh()
        (dropout_2): Dropout(p=0.2, inplace=False)
        (decision_fn_3): Linear(in_features=64, out_features=32, bias=True)
        (activation_fn_3): Sigmoid()
        (mu_dropout): Dropout(p=0.6, inplace=False)
      )
      (11): NeuralDecisionTree(
        (decision_fn_1): Linear(in_features=96, out_features=64, bias=True)
        (activation_fn_1): Tanh()
        (dropout_1): Dropout(p=0.2, inplace=False)
        (decision_fn_2): Linear(in_features=64, out_features=64, bias=True)
        (activation_fn_2): Tanh()
        (dropout_2): Dropout(p=0.2, inplace=False)
        (decision_fn_3): Linear(in_features=64, out_features=32, bias=True)
        (activation_fn_3): Sigmoid()
        (mu_dropout): Dropout(p=0.6, inplace=False)
      )
      (12): NeuralDecisionTree(
        (decision_fn_1): Linear(in_features=96, out_features=64, bias=True)
        (activation_fn_1): Tanh()
        (dropout_1): Dropout(p=0.2, inplace=False)
        (decision_fn_2): Linear(in_features=64, out_features=64, bias=True)
        (activation_fn_2): Tanh()
        (dropout_2): Dropout(p=0.2, inplace=False)
        (decision_fn_3): Linear(in_features=64, out_features=32, bias=True)
        (activation_fn_3): Sigmoid()
        (mu_dropout): Dropout(p=0.6, inplace=False)
      )
      (13): NeuralDecisionTree(
        (decision_fn_1): Linear(in_features=96, out_features=64, bias=True)
        (activation_fn_1): Tanh()
        (dropout_1): Dropout(p=0.2, inplace=False)
        (decision_fn_2): Linear(in_features=64, out_features=64, bias=True)
        (activation_fn_2): Tanh()
        (dropout_2): Dropout(p=0.2, inplace=False)
        (decision_fn_3): Linear(in_features=64, out_features=32, bias=True)
        (activation_fn_3): Sigmoid()
        (mu_dropout): Dropout(p=0.6, inplace=False)
      )
      (14): NeuralDecisionTree(
        (decision_fn_1): Linear(in_features=96, out_features=64, bias=True)
        (activation_fn_1): Tanh()
        (dropout_1): Dropout(p=0.2, inplace=False)
        (decision_fn_2): Linear(in_features=64, out_features=64, bias=True)
        (activation_fn_2): Tanh()
        (dropout_2): Dropout(p=0.2, inplace=False)
        (decision_fn_3): Linear(in_features=64, out_features=32, bias=True)
        (activation_fn_3): Sigmoid()
        (mu_dropout): Dropout(p=0.6, inplace=False)
      )
      (15): NeuralDecisionTree(
        (decision_fn_1): Linear(in_features=96, out_features=64, bias=True)
        (activation_fn_1): Tanh()
        (dropout_1): Dropout(p=0.2, inplace=False)
        (decision_fn_2): Linear(in_features=64, out_features=64, bias=True)
        (activation_fn_2): Tanh()
        (dropout_2): Dropout(p=0.2, inplace=False)
        (decision_fn_3): Linear(in_features=64, out_features=32, bias=True)
        (activation_fn_3): Sigmoid()
        (mu_dropout): Dropout(p=0.6, inplace=False)
      )
      (16): NeuralDecisionTree(
        (decision_fn_1): Linear(in_features=96, out_features=64, bias=True)
        (activation_fn_1): Tanh()
        (dropout_1): Dropout(p=0.2, inplace=False)
        (decision_fn_2): Linear(in_features=64, out_features=64, bias=True)
        (activation_fn_2): Tanh()
        (dropout_2): Dropout(p=0.2, inplace=False)
        (decision_fn_3): Linear(in_features=64, out_features=32, bias=True)
        (activation_fn_3): Sigmoid()
        (mu_dropout): Dropout(p=0.6, inplace=False)
      )
      (17): NeuralDecisionTree(
        (decision_fn_1): Linear(in_features=96, out_features=64, bias=True)
        (activation_fn_1): Tanh()
        (dropout_1): Dropout(p=0.2, inplace=False)
        (decision_fn_2): Linear(in_features=64, out_features=64, bias=True)
        (activation_fn_2): Tanh()
        (dropout_2): Dropout(p=0.2, inplace=False)
        (decision_fn_3): Linear(in_features=64, out_features=32, bias=True)
        (activation_fn_3): Sigmoid()
        (mu_dropout): Dropout(p=0.6, inplace=False)
      )
      (18): NeuralDecisionTree(
        (decision_fn_1): Linear(in_features=96, out_features=64, bias=True)
        (activation_fn_1): Tanh()
        (dropout_1): Dropout(p=0.2, inplace=False)
        (decision_fn_2): Linear(in_features=64, out_features=64, bias=True)
        (activation_fn_2): Tanh()
        (dropout_2): Dropout(p=0.2, inplace=False)
        (decision_fn_3): Linear(in_features=64, out_features=32, bias=True)
        (activation_fn_3): Sigmoid()
        (mu_dropout): Dropout(p=0.6, inplace=False)
      )
      (19): NeuralDecisionTree(
        (decision_fn_1): Linear(in_features=96, out_features=64, bias=True)
        (activation_fn_1): Tanh()
        (dropout_1): Dropout(p=0.2, inplace=False)
        (decision_fn_2): Linear(in_features=64, out_features=64, bias=True)
        (activation_fn_2): Tanh()
        (dropout_2): Dropout(p=0.2, inplace=False)
        (decision_fn_3): Linear(in_features=64, out_features=32, bias=True)
        (activation_fn_3): Sigmoid()
        (mu_dropout): Dropout(p=0.6, inplace=False)
      )
      (20): NeuralDecisionTree(
        (decision_fn_1): Linear(in_features=96, out_features=64, bias=True)
        (activation_fn_1): Tanh()
        (dropout_1): Dropout(p=0.2, inplace=False)
        (decision_fn_2): Linear(in_features=64, out_features=64, bias=True)
        (activation_fn_2): Tanh()
        (dropout_2): Dropout(p=0.2, inplace=False)
        (decision_fn_3): Linear(in_features=64, out_features=32, bias=True)
        (activation_fn_3): Sigmoid()
        (mu_dropout): Dropout(p=0.6, inplace=False)
      )
      (21): NeuralDecisionTree(
        (decision_fn_1): Linear(in_features=96, out_features=64, bias=True)
        (activation_fn_1): Tanh()
        (dropout_1): Dropout(p=0.2, inplace=False)
        (decision_fn_2): Linear(in_features=64, out_features=64, bias=True)
        (activation_fn_2): Tanh()
        (dropout_2): Dropout(p=0.2, inplace=False)
        (decision_fn_3): Linear(in_features=64, out_features=32, bias=True)
        (activation_fn_3): Sigmoid()
        (mu_dropout): Dropout(p=0.6, inplace=False)
      )
      (22): NeuralDecisionTree(
        (decision_fn_1): Linear(in_features=96, out_features=64, bias=True)
        (activation_fn_1): Tanh()
        (dropout_1): Dropout(p=0.2, inplace=False)
        (decision_fn_2): Linear(in_features=64, out_features=64, bias=True)
        (activation_fn_2): Tanh()
        (dropout_2): Dropout(p=0.2, inplace=False)
        (decision_fn_3): Linear(in_features=64, out_features=32, bias=True)
        (activation_fn_3): Sigmoid()
        (mu_dropout): Dropout(p=0.6, inplace=False)
      )
      (23): NeuralDecisionTree(
        (decision_fn_1): Linear(in_features=96, out_features=64, bias=True)
        (activation_fn_1): Tanh()
        (dropout_1): Dropout(p=0.2, inplace=False)
        (decision_fn_2): Linear(in_features=64, out_features=64, bias=True)
        (activation_fn_2): Tanh()
        (dropout_2): Dropout(p=0.2, inplace=False)
        (decision_fn_3): Linear(in_features=64, out_features=32, bias=True)
        (activation_fn_3): Sigmoid()
        (mu_dropout): Dropout(p=0.6, inplace=False)
      )
      (24): NeuralDecisionTree(
        (decision_fn_1): Linear(in_features=96, out_features=64, bias=True)
        (activation_fn_1): Tanh()
        (dropout_1): Dropout(p=0.2, inplace=False)
        (decision_fn_2): Linear(in_features=64, out_features=64, bias=True)
        (activation_fn_2): Tanh()
        (dropout_2): Dropout(p=0.2, inplace=False)
        (decision_fn_3): Linear(in_features=64, out_features=32, bias=True)
        (activation_fn_3): Sigmoid()
        (mu_dropout): Dropout(p=0.6, inplace=False)
      )
      (25): NeuralDecisionTree(
        (decision_fn_1): Linear(in_features=96, out_features=64, bias=True)
        (activation_fn_1): Tanh()
        (dropout_1): Dropout(p=0.2, inplace=False)
        (decision_fn_2): Linear(in_features=64, out_features=64, bias=True)
        (activation_fn_2): Tanh()
        (dropout_2): Dropout(p=0.2, inplace=False)
        (decision_fn_3): Linear(in_features=64, out_features=32, bias=True)
        (activation_fn_3): Sigmoid()
        (mu_dropout): Dropout(p=0.6, inplace=False)
      )
      (26): NeuralDecisionTree(
        (decision_fn_1): Linear(in_features=96, out_features=64, bias=True)
        (activation_fn_1): Tanh()
        (dropout_1): Dropout(p=0.2, inplace=False)
        (decision_fn_2): Linear(in_features=64, out_features=64, bias=True)
        (activation_fn_2): Tanh()
        (dropout_2): Dropout(p=0.2, inplace=False)
        (decision_fn_3): Linear(in_features=64, out_features=32, bias=True)
        (activation_fn_3): Sigmoid()
        (mu_dropout): Dropout(p=0.6, inplace=False)
      )
      (27): NeuralDecisionTree(
        (decision_fn_1): Linear(in_features=96, out_features=64, bias=True)
        (activation_fn_1): Tanh()
        (dropout_1): Dropout(p=0.2, inplace=False)
        (decision_fn_2): Linear(in_features=64, out_features=64, bias=True)
        (activation_fn_2): Tanh()
        (dropout_2): Dropout(p=0.2, inplace=False)
        (decision_fn_3): Linear(in_features=64, out_features=32, bias=True)
        (activation_fn_3): Sigmoid()
        (mu_dropout): Dropout(p=0.6, inplace=False)
      )
      (28): NeuralDecisionTree(
        (decision_fn_1): Linear(in_features=96, out_features=64, bias=True)
        (activation_fn_1): Tanh()
        (dropout_1): Dropout(p=0.2, inplace=False)
        (decision_fn_2): Linear(in_features=64, out_features=64, bias=True)
        (activation_fn_2): Tanh()
        (dropout_2): Dropout(p=0.2, inplace=False)
        (decision_fn_3): Linear(in_features=64, out_features=32, bias=True)
        (activation_fn_3): Sigmoid()
        (mu_dropout): Dropout(p=0.6, inplace=False)
      )
      (29): NeuralDecisionTree(
        (decision_fn_1): Linear(in_features=96, out_features=64, bias=True)
        (activation_fn_1): Tanh()
        (dropout_1): Dropout(p=0.2, inplace=False)
        (decision_fn_2): Linear(in_features=64, out_features=64, bias=True)
        (activation_fn_2): Tanh()
        (dropout_2): Dropout(p=0.2, inplace=False)
        (decision_fn_3): Linear(in_features=64, out_features=32, bias=True)
        (activation_fn_3): Sigmoid()
        (mu_dropout): Dropout(p=0.6, inplace=False)
      )
      (30): NeuralDecisionTree(
        (decision_fn_1): Linear(in_features=96, out_features=64, bias=True)
        (activation_fn_1): Tanh()
        (dropout_1): Dropout(p=0.2, inplace=False)
        (decision_fn_2): Linear(in_features=64, out_features=64, bias=True)
        (activation_fn_2): Tanh()
        (dropout_2): Dropout(p=0.2, inplace=False)
        (decision_fn_3): Linear(in_features=64, out_features=32, bias=True)
        (activation_fn_3): Sigmoid()
        (mu_dropout): Dropout(p=0.6, inplace=False)
      )
      (31): NeuralDecisionTree(
        (decision_fn_1): Linear(in_features=96, out_features=64, bias=True)
        (activation_fn_1): Tanh()
        (dropout_1): Dropout(p=0.2, inplace=False)
        (decision_fn_2): Linear(in_features=64, out_features=64, bias=True)
        (activation_fn_2): Tanh()
        (dropout_2): Dropout(p=0.2, inplace=False)
        (decision_fn_3): Linear(in_features=64, out_features=32, bias=True)
        (activation_fn_3): Sigmoid()
        (mu_dropout): Dropout(p=0.6, inplace=False)
      )
      (32): NeuralDecisionTree(
        (decision_fn_1): Linear(in_features=96, out_features=64, bias=True)
        (activation_fn_1): Tanh()
        (dropout_1): Dropout(p=0.2, inplace=False)
        (decision_fn_2): Linear(in_features=64, out_features=64, bias=True)
        (activation_fn_2): Tanh()
        (dropout_2): Dropout(p=0.2, inplace=False)
        (decision_fn_3): Linear(in_features=64, out_features=32, bias=True)
        (activation_fn_3): Sigmoid()
        (mu_dropout): Dropout(p=0.6, inplace=False)
      )
      (33): NeuralDecisionTree(
        (decision_fn_1): Linear(in_features=96, out_features=64, bias=True)
        (activation_fn_1): Tanh()
        (dropout_1): Dropout(p=0.2, inplace=False)
        (decision_fn_2): Linear(in_features=64, out_features=64, bias=True)
        (activation_fn_2): Tanh()
        (dropout_2): Dropout(p=0.2, inplace=False)
        (decision_fn_3): Linear(in_features=64, out_features=32, bias=True)
        (activation_fn_3): Sigmoid()
        (mu_dropout): Dropout(p=0.6, inplace=False)
      )
      (34): NeuralDecisionTree(
        (decision_fn_1): Linear(in_features=96, out_features=64, bias=True)
        (activation_fn_1): Tanh()
        (dropout_1): Dropout(p=0.2, inplace=False)
        (decision_fn_2): Linear(in_features=64, out_features=64, bias=True)
        (activation_fn_2): Tanh()
        (dropout_2): Dropout(p=0.2, inplace=False)
        (decision_fn_3): Linear(in_features=64, out_features=32, bias=True)
        (activation_fn_3): Sigmoid()
        (mu_dropout): Dropout(p=0.6, inplace=False)
      )
      (35): NeuralDecisionTree(
        (decision_fn_1): Linear(in_features=96, out_features=64, bias=True)
        (activation_fn_1): Tanh()
        (dropout_1): Dropout(p=0.2, inplace=False)
        (decision_fn_2): Linear(in_features=64, out_features=64, bias=True)
        (activation_fn_2): Tanh()
        (dropout_2): Dropout(p=0.2, inplace=False)
        (decision_fn_3): Linear(in_features=64, out_features=32, bias=True)
        (activation_fn_3): Sigmoid()
        (mu_dropout): Dropout(p=0.6, inplace=False)
      )
      (36): NeuralDecisionTree(
        (decision_fn_1): Linear(in_features=96, out_features=64, bias=True)
        (activation_fn_1): Tanh()
        (dropout_1): Dropout(p=0.2, inplace=False)
        (decision_fn_2): Linear(in_features=64, out_features=64, bias=True)
        (activation_fn_2): Tanh()
        (dropout_2): Dropout(p=0.2, inplace=False)
        (decision_fn_3): Linear(in_features=64, out_features=32, bias=True)
        (activation_fn_3): Sigmoid()
        (mu_dropout): Dropout(p=0.6, inplace=False)
      )
      (37): NeuralDecisionTree(
        (decision_fn_1): Linear(in_features=96, out_features=64, bias=True)
        (activation_fn_1): Tanh()
        (dropout_1): Dropout(p=0.2, inplace=False)
        (decision_fn_2): Linear(in_features=64, out_features=64, bias=True)
        (activation_fn_2): Tanh()
        (dropout_2): Dropout(p=0.2, inplace=False)
        (decision_fn_3): Linear(in_features=64, out_features=32, bias=True)
        (activation_fn_3): Sigmoid()
        (mu_dropout): Dropout(p=0.6, inplace=False)
      )
      (38): NeuralDecisionTree(
        (decision_fn_1): Linear(in_features=96, out_features=64, bias=True)
        (activation_fn_1): Tanh()
        (dropout_1): Dropout(p=0.2, inplace=False)
        (decision_fn_2): Linear(in_features=64, out_features=64, bias=True)
        (activation_fn_2): Tanh()
        (dropout_2): Dropout(p=0.2, inplace=False)
        (decision_fn_3): Linear(in_features=64, out_features=32, bias=True)
        (activation_fn_3): Sigmoid()
        (mu_dropout): Dropout(p=0.6, inplace=False)
      )
      (39): NeuralDecisionTree(
        (decision_fn_1): Linear(in_features=96, out_features=64, bias=True)
        (activation_fn_1): Tanh()
        (dropout_1): Dropout(p=0.2, inplace=False)
        (decision_fn_2): Linear(in_features=64, out_features=64, bias=True)
        (activation_fn_2): Tanh()
        (dropout_2): Dropout(p=0.2, inplace=False)
        (decision_fn_3): Linear(in_features=64, out_features=32, bias=True)
        (activation_fn_3): Sigmoid()
        (mu_dropout): Dropout(p=0.6, inplace=False)
      )
      (40): NeuralDecisionTree(
        (decision_fn_1): Linear(in_features=96, out_features=64, bias=True)
        (activation_fn_1): Tanh()
        (dropout_1): Dropout(p=0.2, inplace=False)
        (decision_fn_2): Linear(in_features=64, out_features=64, bias=True)
        (activation_fn_2): Tanh()
        (dropout_2): Dropout(p=0.2, inplace=False)
        (decision_fn_3): Linear(in_features=64, out_features=32, bias=True)
        (activation_fn_3): Sigmoid()
        (mu_dropout): Dropout(p=0.6, inplace=False)
      )
      (41): NeuralDecisionTree(
        (decision_fn_1): Linear(in_features=96, out_features=64, bias=True)
        (activation_fn_1): Tanh()
        (dropout_1): Dropout(p=0.2, inplace=False)
        (decision_fn_2): Linear(in_features=64, out_features=64, bias=True)
        (activation_fn_2): Tanh()
        (dropout_2): Dropout(p=0.2, inplace=False)
        (decision_fn_3): Linear(in_features=64, out_features=32, bias=True)
        (activation_fn_3): Sigmoid()
        (mu_dropout): Dropout(p=0.6, inplace=False)
      )
      (42): NeuralDecisionTree(
        (decision_fn_1): Linear(in_features=96, out_features=64, bias=True)
        (activation_fn_1): Tanh()
        (dropout_1): Dropout(p=0.2, inplace=False)
        (decision_fn_2): Linear(in_features=64, out_features=64, bias=True)
        (activation_fn_2): Tanh()
        (dropout_2): Dropout(p=0.2, inplace=False)
        (decision_fn_3): Linear(in_features=64, out_features=32, bias=True)
        (activation_fn_3): Sigmoid()
        (mu_dropout): Dropout(p=0.6, inplace=False)
      )
      (43): NeuralDecisionTree(
        (decision_fn_1): Linear(in_features=96, out_features=64, bias=True)
        (activation_fn_1): Tanh()
        (dropout_1): Dropout(p=0.2, inplace=False)
        (decision_fn_2): Linear(in_features=64, out_features=64, bias=True)
        (activation_fn_2): Tanh()
        (dropout_2): Dropout(p=0.2, inplace=False)
        (decision_fn_3): Linear(in_features=64, out_features=32, bias=True)
        (activation_fn_3): Sigmoid()
        (mu_dropout): Dropout(p=0.6, inplace=False)
      )
      (44): NeuralDecisionTree(
        (decision_fn_1): Linear(in_features=96, out_features=64, bias=True)
        (activation_fn_1): Tanh()
        (dropout_1): Dropout(p=0.2, inplace=False)
        (decision_fn_2): Linear(in_features=64, out_features=64, bias=True)
        (activation_fn_2): Tanh()
        (dropout_2): Dropout(p=0.2, inplace=False)
        (decision_fn_3): Linear(in_features=64, out_features=32, bias=True)
        (activation_fn_3): Sigmoid()
        (mu_dropout): Dropout(p=0.6, inplace=False)
      )
      (45): NeuralDecisionTree(
        (decision_fn_1): Linear(in_features=96, out_features=64, bias=True)
        (activation_fn_1): Tanh()
        (dropout_1): Dropout(p=0.2, inplace=False)
        (decision_fn_2): Linear(in_features=64, out_features=64, bias=True)
        (activation_fn_2): Tanh()
        (dropout_2): Dropout(p=0.2, inplace=False)
        (decision_fn_3): Linear(in_features=64, out_features=32, bias=True)
        (activation_fn_3): Sigmoid()
        (mu_dropout): Dropout(p=0.6, inplace=False)
      )
      (46): NeuralDecisionTree(
        (decision_fn_1): Linear(in_features=96, out_features=64, bias=True)
        (activation_fn_1): Tanh()
        (dropout_1): Dropout(p=0.2, inplace=False)
        (decision_fn_2): Linear(in_features=64, out_features=64, bias=True)
        (activation_fn_2): Tanh()
        (dropout_2): Dropout(p=0.2, inplace=False)
        (decision_fn_3): Linear(in_features=64, out_features=32, bias=True)
        (activation_fn_3): Sigmoid()
        (mu_dropout): Dropout(p=0.6, inplace=False)
      )
      (47): NeuralDecisionTree(
        (decision_fn_1): Linear(in_features=96, out_features=64, bias=True)
        (activation_fn_1): Tanh()
        (dropout_1): Dropout(p=0.2, inplace=False)
        (decision_fn_2): Linear(in_features=64, out_features=64, bias=True)
        (activation_fn_2): Tanh()
        (dropout_2): Dropout(p=0.2, inplace=False)
        (decision_fn_3): Linear(in_features=64, out_features=32, bias=True)
        (activation_fn_3): Sigmoid()
        (mu_dropout): Dropout(p=0.6, inplace=False)
      )
      (48): NeuralDecisionTree(
        (decision_fn_1): Linear(in_features=96, out_features=64, bias=True)
        (activation_fn_1): Tanh()
        (dropout_1): Dropout(p=0.2, inplace=False)
        (decision_fn_2): Linear(in_features=64, out_features=64, bias=True)
        (activation_fn_2): Tanh()
        (dropout_2): Dropout(p=0.2, inplace=False)
        (decision_fn_3): Linear(in_features=64, out_features=32, bias=True)
        (activation_fn_3): Sigmoid()
        (mu_dropout): Dropout(p=0.6, inplace=False)
      )
      (49): NeuralDecisionTree(
        (decision_fn_1): Linear(in_features=96, out_features=64, bias=True)
        (activation_fn_1): Tanh()
        (dropout_1): Dropout(p=0.2, inplace=False)
        (decision_fn_2): Linear(in_features=64, out_features=64, bias=True)
        (activation_fn_2): Tanh()
        (dropout_2): Dropout(p=0.2, inplace=False)
        (decision_fn_3): Linear(in_features=64, out_features=32, bias=True)
        (activation_fn_3): Sigmoid()
        (mu_dropout): Dropout(p=0.6, inplace=False)
      )
      (50): NeuralDecisionTree(
        (decision_fn_1): Linear(in_features=96, out_features=64, bias=True)
        (activation_fn_1): Tanh()
        (dropout_1): Dropout(p=0.2, inplace=False)
        (decision_fn_2): Linear(in_features=64, out_features=64, bias=True)
        (activation_fn_2): Tanh()
        (dropout_2): Dropout(p=0.2, inplace=False)
        (decision_fn_3): Linear(in_features=64, out_features=32, bias=True)
        (activation_fn_3): Sigmoid()
        (mu_dropout): Dropout(p=0.6, inplace=False)
      )
      (51): NeuralDecisionTree(
        (decision_fn_1): Linear(in_features=96, out_features=64, bias=True)
        (activation_fn_1): Tanh()
        (dropout_1): Dropout(p=0.2, inplace=False)
        (decision_fn_2): Linear(in_features=64, out_features=64, bias=True)
        (activation_fn_2): Tanh()
        (dropout_2): Dropout(p=0.2, inplace=False)
        (decision_fn_3): Linear(in_features=64, out_features=32, bias=True)
        (activation_fn_3): Sigmoid()
        (mu_dropout): Dropout(p=0.6, inplace=False)
      )
      (52): NeuralDecisionTree(
        (decision_fn_1): Linear(in_features=96, out_features=64, bias=True)
        (activation_fn_1): Tanh()
        (dropout_1): Dropout(p=0.2, inplace=False)
        (decision_fn_2): Linear(in_features=64, out_features=64, bias=True)
        (activation_fn_2): Tanh()
        (dropout_2): Dropout(p=0.2, inplace=False)
        (decision_fn_3): Linear(in_features=64, out_features=32, bias=True)
        (activation_fn_3): Sigmoid()
        (mu_dropout): Dropout(p=0.6, inplace=False)
      )
      (53): NeuralDecisionTree(
        (decision_fn_1): Linear(in_features=96, out_features=64, bias=True)
        (activation_fn_1): Tanh()
        (dropout_1): Dropout(p=0.2, inplace=False)
        (decision_fn_2): Linear(in_features=64, out_features=64, bias=True)
        (activation_fn_2): Tanh()
        (dropout_2): Dropout(p=0.2, inplace=False)
        (decision_fn_3): Linear(in_features=64, out_features=32, bias=True)
        (activation_fn_3): Sigmoid()
        (mu_dropout): Dropout(p=0.6, inplace=False)
      )
      (54): NeuralDecisionTree(
        (decision_fn_1): Linear(in_features=96, out_features=64, bias=True)
        (activation_fn_1): Tanh()
        (dropout_1): Dropout(p=0.2, inplace=False)
        (decision_fn_2): Linear(in_features=64, out_features=64, bias=True)
        (activation_fn_2): Tanh()
        (dropout_2): Dropout(p=0.2, inplace=False)
        (decision_fn_3): Linear(in_features=64, out_features=32, bias=True)
        (activation_fn_3): Sigmoid()
        (mu_dropout): Dropout(p=0.6, inplace=False)
      )
      (55): NeuralDecisionTree(
        (decision_fn_1): Linear(in_features=96, out_features=64, bias=True)
        (activation_fn_1): Tanh()
        (dropout_1): Dropout(p=0.2, inplace=False)
        (decision_fn_2): Linear(in_features=64, out_features=64, bias=True)
        (activation_fn_2): Tanh()
        (dropout_2): Dropout(p=0.2, inplace=False)
        (decision_fn_3): Linear(in_features=64, out_features=32, bias=True)
        (activation_fn_3): Sigmoid()
        (mu_dropout): Dropout(p=0.6, inplace=False)
      )
      (56): NeuralDecisionTree(
        (decision_fn_1): Linear(in_features=96, out_features=64, bias=True)
        (activation_fn_1): Tanh()
        (dropout_1): Dropout(p=0.2, inplace=False)
        (decision_fn_2): Linear(in_features=64, out_features=64, bias=True)
        (activation_fn_2): Tanh()
        (dropout_2): Dropout(p=0.2, inplace=False)
        (decision_fn_3): Linear(in_features=64, out_features=32, bias=True)
        (activation_fn_3): Sigmoid()
        (mu_dropout): Dropout(p=0.6, inplace=False)
      )
      (57): NeuralDecisionTree(
        (decision_fn_1): Linear(in_features=96, out_features=64, bias=True)
        (activation_fn_1): Tanh()
        (dropout_1): Dropout(p=0.2, inplace=False)
        (decision_fn_2): Linear(in_features=64, out_features=64, bias=True)
        (activation_fn_2): Tanh()
        (dropout_2): Dropout(p=0.2, inplace=False)
        (decision_fn_3): Linear(in_features=64, out_features=32, bias=True)
        (activation_fn_3): Sigmoid()
        (mu_dropout): Dropout(p=0.6, inplace=False)
      )
      (58): NeuralDecisionTree(
        (decision_fn_1): Linear(in_features=96, out_features=64, bias=True)
        (activation_fn_1): Tanh()
        (dropout_1): Dropout(p=0.2, inplace=False)
        (decision_fn_2): Linear(in_features=64, out_features=64, bias=True)
        (activation_fn_2): Tanh()
        (dropout_2): Dropout(p=0.2, inplace=False)
        (decision_fn_3): Linear(in_features=64, out_features=32, bias=True)
        (activation_fn_3): Sigmoid()
        (mu_dropout): Dropout(p=0.6, inplace=False)
      )
      (59): NeuralDecisionTree(
        (decision_fn_1): Linear(in_features=96, out_features=64, bias=True)
        (activation_fn_1): Tanh()
        (dropout_1): Dropout(p=0.2, inplace=False)
        (decision_fn_2): Linear(in_features=64, out_features=64, bias=True)
        (activation_fn_2): Tanh()
        (dropout_2): Dropout(p=0.2, inplace=False)
        (decision_fn_3): Linear(in_features=64, out_features=32, bias=True)
        (activation_fn_3): Sigmoid()
        (mu_dropout): Dropout(p=0.6, inplace=False)
      )
      (60): NeuralDecisionTree(
        (decision_fn_1): Linear(in_features=96, out_features=64, bias=True)
        (activation_fn_1): Tanh()
        (dropout_1): Dropout(p=0.2, inplace=False)
        (decision_fn_2): Linear(in_features=64, out_features=64, bias=True)
        (activation_fn_2): Tanh()
        (dropout_2): Dropout(p=0.2, inplace=False)
        (decision_fn_3): Linear(in_features=64, out_features=32, bias=True)
        (activation_fn_3): Sigmoid()
        (mu_dropout): Dropout(p=0.6, inplace=False)
      )
      (61): NeuralDecisionTree(
        (decision_fn_1): Linear(in_features=96, out_features=64, bias=True)
        (activation_fn_1): Tanh()
        (dropout_1): Dropout(p=0.2, inplace=False)
        (decision_fn_2): Linear(in_features=64, out_features=64, bias=True)
        (activation_fn_2): Tanh()
        (dropout_2): Dropout(p=0.2, inplace=False)
        (decision_fn_3): Linear(in_features=64, out_features=32, bias=True)
        (activation_fn_3): Sigmoid()
        (mu_dropout): Dropout(p=0.6, inplace=False)
      )
      (62): NeuralDecisionTree(
        (decision_fn_1): Linear(in_features=96, out_features=64, bias=True)
        (activation_fn_1): Tanh()
        (dropout_1): Dropout(p=0.2, inplace=False)
        (decision_fn_2): Linear(in_features=64, out_features=64, bias=True)
        (activation_fn_2): Tanh()
        (dropout_2): Dropout(p=0.2, inplace=False)
        (decision_fn_3): Linear(in_features=64, out_features=32, bias=True)
        (activation_fn_3): Sigmoid()
        (mu_dropout): Dropout(p=0.6, inplace=False)
      )
      (63): NeuralDecisionTree(
        (decision_fn_1): Linear(in_features=96, out_features=64, bias=True)
        (activation_fn_1): Tanh()
        (dropout_1): Dropout(p=0.2, inplace=False)
        (decision_fn_2): Linear(in_features=64, out_features=64, bias=True)
        (activation_fn_2): Tanh()
        (dropout_2): Dropout(p=0.2, inplace=False)
        (decision_fn_3): Linear(in_features=64, out_features=32, bias=True)
        (activation_fn_3): Sigmoid()
        (mu_dropout): Dropout(p=0.6, inplace=False)
      )
      (64): NeuralDecisionTree(
        (decision_fn_1): Linear(in_features=96, out_features=64, bias=True)
        (activation_fn_1): Tanh()
        (dropout_1): Dropout(p=0.2, inplace=False)
        (decision_fn_2): Linear(in_features=64, out_features=64, bias=True)
        (activation_fn_2): Tanh()
        (dropout_2): Dropout(p=0.2, inplace=False)
        (decision_fn_3): Linear(in_features=64, out_features=32, bias=True)
        (activation_fn_3): Sigmoid()
        (mu_dropout): Dropout(p=0.6, inplace=False)
      )
      (65): NeuralDecisionTree(
        (decision_fn_1): Linear(in_features=96, out_features=64, bias=True)
        (activation_fn_1): Tanh()
        (dropout_1): Dropout(p=0.2, inplace=False)
        (decision_fn_2): Linear(in_features=64, out_features=64, bias=True)
        (activation_fn_2): Tanh()
        (dropout_2): Dropout(p=0.2, inplace=False)
        (decision_fn_3): Linear(in_features=64, out_features=32, bias=True)
        (activation_fn_3): Sigmoid()
        (mu_dropout): Dropout(p=0.6, inplace=False)
      )
      (66): NeuralDecisionTree(
        (decision_fn_1): Linear(in_features=96, out_features=64, bias=True)
        (activation_fn_1): Tanh()
        (dropout_1): Dropout(p=0.2, inplace=False)
        (decision_fn_2): Linear(in_features=64, out_features=64, bias=True)
        (activation_fn_2): Tanh()
        (dropout_2): Dropout(p=0.2, inplace=False)
        (decision_fn_3): Linear(in_features=64, out_features=32, bias=True)
        (activation_fn_3): Sigmoid()
        (mu_dropout): Dropout(p=0.6, inplace=False)
      )
      (67): NeuralDecisionTree(
        (decision_fn_1): Linear(in_features=96, out_features=64, bias=True)
        (activation_fn_1): Tanh()
        (dropout_1): Dropout(p=0.2, inplace=False)
        (decision_fn_2): Linear(in_features=64, out_features=64, bias=True)
        (activation_fn_2): Tanh()
        (dropout_2): Dropout(p=0.2, inplace=False)
        (decision_fn_3): Linear(in_features=64, out_features=32, bias=True)
        (activation_fn_3): Sigmoid()
        (mu_dropout): Dropout(p=0.6, inplace=False)
      )
      (68): NeuralDecisionTree(
        (decision_fn_1): Linear(in_features=96, out_features=64, bias=True)
        (activation_fn_1): Tanh()
        (dropout_1): Dropout(p=0.2, inplace=False)
        (decision_fn_2): Linear(in_features=64, out_features=64, bias=True)
        (activation_fn_2): Tanh()
        (dropout_2): Dropout(p=0.2, inplace=False)
        (decision_fn_3): Linear(in_features=64, out_features=32, bias=True)
        (activation_fn_3): Sigmoid()
        (mu_dropout): Dropout(p=0.6, inplace=False)
      )
      (69): NeuralDecisionTree(
        (decision_fn_1): Linear(in_features=96, out_features=64, bias=True)
        (activation_fn_1): Tanh()
        (dropout_1): Dropout(p=0.2, inplace=False)
        (decision_fn_2): Linear(in_features=64, out_features=64, bias=True)
        (activation_fn_2): Tanh()
        (dropout_2): Dropout(p=0.2, inplace=False)
        (decision_fn_3): Linear(in_features=64, out_features=32, bias=True)
        (activation_fn_3): Sigmoid()
        (mu_dropout): Dropout(p=0.6, inplace=False)
      )
      (70): NeuralDecisionTree(
        (decision_fn_1): Linear(in_features=96, out_features=64, bias=True)
        (activation_fn_1): Tanh()
        (dropout_1): Dropout(p=0.2, inplace=False)
        (decision_fn_2): Linear(in_features=64, out_features=64, bias=True)
        (activation_fn_2): Tanh()
        (dropout_2): Dropout(p=0.2, inplace=False)
        (decision_fn_3): Linear(in_features=64, out_features=32, bias=True)
        (activation_fn_3): Sigmoid()
        (mu_dropout): Dropout(p=0.6, inplace=False)
      )
      (71): NeuralDecisionTree(
        (decision_fn_1): Linear(in_features=96, out_features=64, bias=True)
        (activation_fn_1): Tanh()
        (dropout_1): Dropout(p=0.2, inplace=False)
        (decision_fn_2): Linear(in_features=64, out_features=64, bias=True)
        (activation_fn_2): Tanh()
        (dropout_2): Dropout(p=0.2, inplace=False)
        (decision_fn_3): Linear(in_features=64, out_features=32, bias=True)
        (activation_fn_3): Sigmoid()
        (mu_dropout): Dropout(p=0.6, inplace=False)
      )
      (72): NeuralDecisionTree(
        (decision_fn_1): Linear(in_features=96, out_features=64, bias=True)
        (activation_fn_1): Tanh()
        (dropout_1): Dropout(p=0.2, inplace=False)
        (decision_fn_2): Linear(in_features=64, out_features=64, bias=True)
        (activation_fn_2): Tanh()
        (dropout_2): Dropout(p=0.2, inplace=False)
        (decision_fn_3): Linear(in_features=64, out_features=32, bias=True)
        (activation_fn_3): Sigmoid()
        (mu_dropout): Dropout(p=0.6, inplace=False)
      )
      (73): NeuralDecisionTree(
        (decision_fn_1): Linear(in_features=96, out_features=64, bias=True)
        (activation_fn_1): Tanh()
        (dropout_1): Dropout(p=0.2, inplace=False)
        (decision_fn_2): Linear(in_features=64, out_features=64, bias=True)
        (activation_fn_2): Tanh()
        (dropout_2): Dropout(p=0.2, inplace=False)
        (decision_fn_3): Linear(in_features=64, out_features=32, bias=True)
        (activation_fn_3): Sigmoid()
        (mu_dropout): Dropout(p=0.6, inplace=False)
      )
      (74): NeuralDecisionTree(
        (decision_fn_1): Linear(in_features=96, out_features=64, bias=True)
        (activation_fn_1): Tanh()
        (dropout_1): Dropout(p=0.2, inplace=False)
        (decision_fn_2): Linear(in_features=64, out_features=64, bias=True)
        (activation_fn_2): Tanh()
        (dropout_2): Dropout(p=0.2, inplace=False)
        (decision_fn_3): Linear(in_features=64, out_features=32, bias=True)
        (activation_fn_3): Sigmoid()
        (mu_dropout): Dropout(p=0.6, inplace=False)
      )
      (75): NeuralDecisionTree(
        (decision_fn_1): Linear(in_features=96, out_features=64, bias=True)
        (activation_fn_1): Tanh()
        (dropout_1): Dropout(p=0.2, inplace=False)
        (decision_fn_2): Linear(in_features=64, out_features=64, bias=True)
        (activation_fn_2): Tanh()
        (dropout_2): Dropout(p=0.2, inplace=False)
        (decision_fn_3): Linear(in_features=64, out_features=32, bias=True)
        (activation_fn_3): Sigmoid()
        (mu_dropout): Dropout(p=0.6, inplace=False)
      )
      (76): NeuralDecisionTree(
        (decision_fn_1): Linear(in_features=96, out_features=64, bias=True)
        (activation_fn_1): Tanh()
        (dropout_1): Dropout(p=0.2, inplace=False)
        (decision_fn_2): Linear(in_features=64, out_features=64, bias=True)
        (activation_fn_2): Tanh()
        (dropout_2): Dropout(p=0.2, inplace=False)
        (decision_fn_3): Linear(in_features=64, out_features=32, bias=True)
        (activation_fn_3): Sigmoid()
        (mu_dropout): Dropout(p=0.6, inplace=False)
      )
      (77): NeuralDecisionTree(
        (decision_fn_1): Linear(in_features=96, out_features=64, bias=True)
        (activation_fn_1): Tanh()
        (dropout_1): Dropout(p=0.2, inplace=False)
        (decision_fn_2): Linear(in_features=64, out_features=64, bias=True)
        (activation_fn_2): Tanh()
        (dropout_2): Dropout(p=0.2, inplace=False)
        (decision_fn_3): Linear(in_features=64, out_features=32, bias=True)
        (activation_fn_3): Sigmoid()
        (mu_dropout): Dropout(p=0.6, inplace=False)
      )
      (78): NeuralDecisionTree(
        (decision_fn_1): Linear(in_features=96, out_features=64, bias=True)
        (activation_fn_1): Tanh()
        (dropout_1): Dropout(p=0.2, inplace=False)
        (decision_fn_2): Linear(in_features=64, out_features=64, bias=True)
        (activation_fn_2): Tanh()
        (dropout_2): Dropout(p=0.2, inplace=False)
        (decision_fn_3): Linear(in_features=64, out_features=32, bias=True)
        (activation_fn_3): Sigmoid()
        (mu_dropout): Dropout(p=0.6, inplace=False)
      )
      (79): NeuralDecisionTree(
        (decision_fn_1): Linear(in_features=96, out_features=64, bias=True)
        (activation_fn_1): Tanh()
        (dropout_1): Dropout(p=0.2, inplace=False)
        (decision_fn_2): Linear(in_features=64, out_features=64, bias=True)
        (activation_fn_2): Tanh()
        (dropout_2): Dropout(p=0.2, inplace=False)
        (decision_fn_3): Linear(in_features=64, out_features=32, bias=True)
        (activation_fn_3): Sigmoid()
        (mu_dropout): Dropout(p=0.6, inplace=False)
      )
      (80): NeuralDecisionTree(
        (decision_fn_1): Linear(in_features=96, out_features=64, bias=True)
        (activation_fn_1): Tanh()
        (dropout_1): Dropout(p=0.2, inplace=False)
        (decision_fn_2): Linear(in_features=64, out_features=64, bias=True)
        (activation_fn_2): Tanh()
        (dropout_2): Dropout(p=0.2, inplace=False)
        (decision_fn_3): Linear(in_features=64, out_features=32, bias=True)
        (activation_fn_3): Sigmoid()
        (mu_dropout): Dropout(p=0.6, inplace=False)
      )
      (81): NeuralDecisionTree(
        (decision_fn_1): Linear(in_features=96, out_features=64, bias=True)
        (activation_fn_1): Tanh()
        (dropout_1): Dropout(p=0.2, inplace=False)
        (decision_fn_2): Linear(in_features=64, out_features=64, bias=True)
        (activation_fn_2): Tanh()
        (dropout_2): Dropout(p=0.2, inplace=False)
        (decision_fn_3): Linear(in_features=64, out_features=32, bias=True)
        (activation_fn_3): Sigmoid()
        (mu_dropout): Dropout(p=0.6, inplace=False)
      )
      (82): NeuralDecisionTree(
        (decision_fn_1): Linear(in_features=96, out_features=64, bias=True)
        (activation_fn_1): Tanh()
        (dropout_1): Dropout(p=0.2, inplace=False)
        (decision_fn_2): Linear(in_features=64, out_features=64, bias=True)
        (activation_fn_2): Tanh()
        (dropout_2): Dropout(p=0.2, inplace=False)
        (decision_fn_3): Linear(in_features=64, out_features=32, bias=True)
        (activation_fn_3): Sigmoid()
        (mu_dropout): Dropout(p=0.6, inplace=False)
      )
      (83): NeuralDecisionTree(
        (decision_fn_1): Linear(in_features=96, out_features=64, bias=True)
        (activation_fn_1): Tanh()
        (dropout_1): Dropout(p=0.2, inplace=False)
        (decision_fn_2): Linear(in_features=64, out_features=64, bias=True)
        (activation_fn_2): Tanh()
        (dropout_2): Dropout(p=0.2, inplace=False)
        (decision_fn_3): Linear(in_features=64, out_features=32, bias=True)
        (activation_fn_3): Sigmoid()
        (mu_dropout): Dropout(p=0.6, inplace=False)
      )
      (84): NeuralDecisionTree(
        (decision_fn_1): Linear(in_features=96, out_features=64, bias=True)
        (activation_fn_1): Tanh()
        (dropout_1): Dropout(p=0.2, inplace=False)
        (decision_fn_2): Linear(in_features=64, out_features=64, bias=True)
        (activation_fn_2): Tanh()
        (dropout_2): Dropout(p=0.2, inplace=False)
        (decision_fn_3): Linear(in_features=64, out_features=32, bias=True)
        (activation_fn_3): Sigmoid()
        (mu_dropout): Dropout(p=0.6, inplace=False)
      )
      (85): NeuralDecisionTree(
        (decision_fn_1): Linear(in_features=96, out_features=64, bias=True)
        (activation_fn_1): Tanh()
        (dropout_1): Dropout(p=0.2, inplace=False)
        (decision_fn_2): Linear(in_features=64, out_features=64, bias=True)
        (activation_fn_2): Tanh()
        (dropout_2): Dropout(p=0.2, inplace=False)
        (decision_fn_3): Linear(in_features=64, out_features=32, bias=True)
        (activation_fn_3): Sigmoid()
        (mu_dropout): Dropout(p=0.6, inplace=False)
      )
      (86): NeuralDecisionTree(
        (decision_fn_1): Linear(in_features=96, out_features=64, bias=True)
        (activation_fn_1): Tanh()
        (dropout_1): Dropout(p=0.2, inplace=False)
        (decision_fn_2): Linear(in_features=64, out_features=64, bias=True)
        (activation_fn_2): Tanh()
        (dropout_2): Dropout(p=0.2, inplace=False)
        (decision_fn_3): Linear(in_features=64, out_features=32, bias=True)
        (activation_fn_3): Sigmoid()
        (mu_dropout): Dropout(p=0.6, inplace=False)
      )
      (87): NeuralDecisionTree(
        (decision_fn_1): Linear(in_features=96, out_features=64, bias=True)
        (activation_fn_1): Tanh()
        (dropout_1): Dropout(p=0.2, inplace=False)
        (decision_fn_2): Linear(in_features=64, out_features=64, bias=True)
        (activation_fn_2): Tanh()
        (dropout_2): Dropout(p=0.2, inplace=False)
        (decision_fn_3): Linear(in_features=64, out_features=32, bias=True)
        (activation_fn_3): Sigmoid()
        (mu_dropout): Dropout(p=0.6, inplace=False)
      )
      (88): NeuralDecisionTree(
        (decision_fn_1): Linear(in_features=96, out_features=64, bias=True)
        (activation_fn_1): Tanh()
        (dropout_1): Dropout(p=0.2, inplace=False)
        (decision_fn_2): Linear(in_features=64, out_features=64, bias=True)
        (activation_fn_2): Tanh()
        (dropout_2): Dropout(p=0.2, inplace=False)
        (decision_fn_3): Linear(in_features=64, out_features=32, bias=True)
        (activation_fn_3): Sigmoid()
        (mu_dropout): Dropout(p=0.6, inplace=False)
      )
      (89): NeuralDecisionTree(
        (decision_fn_1): Linear(in_features=96, out_features=64, bias=True)
        (activation_fn_1): Tanh()
        (dropout_1): Dropout(p=0.2, inplace=False)
        (decision_fn_2): Linear(in_features=64, out_features=64, bias=True)
        (activation_fn_2): Tanh()
        (dropout_2): Dropout(p=0.2, inplace=False)
        (decision_fn_3): Linear(in_features=64, out_features=32, bias=True)
        (activation_fn_3): Sigmoid()
        (mu_dropout): Dropout(p=0.6, inplace=False)
      )
      (90): NeuralDecisionTree(
        (decision_fn_1): Linear(in_features=96, out_features=64, bias=True)
        (activation_fn_1): Tanh()
        (dropout_1): Dropout(p=0.2, inplace=False)
        (decision_fn_2): Linear(in_features=64, out_features=64, bias=True)
        (activation_fn_2): Tanh()
        (dropout_2): Dropout(p=0.2, inplace=False)
        (decision_fn_3): Linear(in_features=64, out_features=32, bias=True)
        (activation_fn_3): Sigmoid()
        (mu_dropout): Dropout(p=0.6, inplace=False)
      )
      (91): NeuralDecisionTree(
        (decision_fn_1): Linear(in_features=96, out_features=64, bias=True)
        (activation_fn_1): Tanh()
        (dropout_1): Dropout(p=0.2, inplace=False)
        (decision_fn_2): Linear(in_features=64, out_features=64, bias=True)
        (activation_fn_2): Tanh()
        (dropout_2): Dropout(p=0.2, inplace=False)
        (decision_fn_3): Linear(in_features=64, out_features=32, bias=True)
        (activation_fn_3): Sigmoid()
        (mu_dropout): Dropout(p=0.6, inplace=False)
      )
      (92): NeuralDecisionTree(
        (decision_fn_1): Linear(in_features=96, out_features=64, bias=True)
        (activation_fn_1): Tanh()
        (dropout_1): Dropout(p=0.2, inplace=False)
        (decision_fn_2): Linear(in_features=64, out_features=64, bias=True)
        (activation_fn_2): Tanh()
        (dropout_2): Dropout(p=0.2, inplace=False)
        (decision_fn_3): Linear(in_features=64, out_features=32, bias=True)
        (activation_fn_3): Sigmoid()
        (mu_dropout): Dropout(p=0.6, inplace=False)
      )
      (93): NeuralDecisionTree(
        (decision_fn_1): Linear(in_features=96, out_features=64, bias=True)
        (activation_fn_1): Tanh()
        (dropout_1): Dropout(p=0.2, inplace=False)
        (decision_fn_2): Linear(in_features=64, out_features=64, bias=True)
        (activation_fn_2): Tanh()
        (dropout_2): Dropout(p=0.2, inplace=False)
        (decision_fn_3): Linear(in_features=64, out_features=32, bias=True)
        (activation_fn_3): Sigmoid()
        (mu_dropout): Dropout(p=0.6, inplace=False)
      )
      (94): NeuralDecisionTree(
        (decision_fn_1): Linear(in_features=96, out_features=64, bias=True)
        (activation_fn_1): Tanh()
        (dropout_1): Dropout(p=0.2, inplace=False)
        (decision_fn_2): Linear(in_features=64, out_features=64, bias=True)
        (activation_fn_2): Tanh()
        (dropout_2): Dropout(p=0.2, inplace=False)
        (decision_fn_3): Linear(in_features=64, out_features=32, bias=True)
        (activation_fn_3): Sigmoid()
        (mu_dropout): Dropout(p=0.6, inplace=False)
      )
      (95): NeuralDecisionTree(
        (decision_fn_1): Linear(in_features=96, out_features=64, bias=True)
        (activation_fn_1): Tanh()
        (dropout_1): Dropout(p=0.2, inplace=False)
        (decision_fn_2): Linear(in_features=64, out_features=64, bias=True)
        (activation_fn_2): Tanh()
        (dropout_2): Dropout(p=0.2, inplace=False)
        (decision_fn_3): Linear(in_features=64, out_features=32, bias=True)
        (activation_fn_3): Sigmoid()
        (mu_dropout): Dropout(p=0.6, inplace=False)
      )
      (96): NeuralDecisionTree(
        (decision_fn_1): Linear(in_features=96, out_features=64, bias=True)
        (activation_fn_1): Tanh()
        (dropout_1): Dropout(p=0.2, inplace=False)
        (decision_fn_2): Linear(in_features=64, out_features=64, bias=True)
        (activation_fn_2): Tanh()
        (dropout_2): Dropout(p=0.2, inplace=False)
        (decision_fn_3): Linear(in_features=64, out_features=32, bias=True)
        (activation_fn_3): Sigmoid()
        (mu_dropout): Dropout(p=0.6, inplace=False)
      )
      (97): NeuralDecisionTree(
        (decision_fn_1): Linear(in_features=96, out_features=64, bias=True)
        (activation_fn_1): Tanh()
        (dropout_1): Dropout(p=0.2, inplace=False)
        (decision_fn_2): Linear(in_features=64, out_features=64, bias=True)
        (activation_fn_2): Tanh()
        (dropout_2): Dropout(p=0.2, inplace=False)
        (decision_fn_3): Linear(in_features=64, out_features=32, bias=True)
        (activation_fn_3): Sigmoid()
        (mu_dropout): Dropout(p=0.6, inplace=False)
      )
      (98): NeuralDecisionTree(
        (decision_fn_1): Linear(in_features=96, out_features=64, bias=True)
        (activation_fn_1): Tanh()
        (dropout_1): Dropout(p=0.2, inplace=False)
        (decision_fn_2): Linear(in_features=64, out_features=64, bias=True)
        (activation_fn_2): Tanh()
        (dropout_2): Dropout(p=0.2, inplace=False)
        (decision_fn_3): Linear(in_features=64, out_features=32, bias=True)
        (activation_fn_3): Sigmoid()
        (mu_dropout): Dropout(p=0.6, inplace=False)
      )
      (99): NeuralDecisionTree(
        (decision_fn_1): Linear(in_features=96, out_features=64, bias=True)
        (activation_fn_1): Tanh()
        (dropout_1): Dropout(p=0.2, inplace=False)
        (decision_fn_2): Linear(in_features=64, out_features=64, bias=True)
        (activation_fn_2): Tanh()
        (dropout_2): Dropout(p=0.2, inplace=False)
        (decision_fn_3): Linear(in_features=64, out_features=32, bias=True)
        (activation_fn_3): Sigmoid()
        (mu_dropout): Dropout(p=0.6, inplace=False)
      )
      (100): NeuralDecisionTree(
        (decision_fn_1): Linear(in_features=96, out_features=64, bias=True)
        (activation_fn_1): Tanh()
        (dropout_1): Dropout(p=0.2, inplace=False)
        (decision_fn_2): Linear(in_features=64, out_features=64, bias=True)
        (activation_fn_2): Tanh()
        (dropout_2): Dropout(p=0.2, inplace=False)
        (decision_fn_3): Linear(in_features=64, out_features=32, bias=True)
        (activation_fn_3): Sigmoid()
        (mu_dropout): Dropout(p=0.6, inplace=False)
      )
      (101): NeuralDecisionTree(
        (decision_fn_1): Linear(in_features=96, out_features=64, bias=True)
        (activation_fn_1): Tanh()
        (dropout_1): Dropout(p=0.2, inplace=False)
        (decision_fn_2): Linear(in_features=64, out_features=64, bias=True)
        (activation_fn_2): Tanh()
        (dropout_2): Dropout(p=0.2, inplace=False)
        (decision_fn_3): Linear(in_features=64, out_features=32, bias=True)
        (activation_fn_3): Sigmoid()
        (mu_dropout): Dropout(p=0.6, inplace=False)
      )
      (102): NeuralDecisionTree(
        (decision_fn_1): Linear(in_features=96, out_features=64, bias=True)
        (activation_fn_1): Tanh()
        (dropout_1): Dropout(p=0.2, inplace=False)
        (decision_fn_2): Linear(in_features=64, out_features=64, bias=True)
        (activation_fn_2): Tanh()
        (dropout_2): Dropout(p=0.2, inplace=False)
        (decision_fn_3): Linear(in_features=64, out_features=32, bias=True)
        (activation_fn_3): Sigmoid()
        (mu_dropout): Dropout(p=0.6, inplace=False)
      )
      (103): NeuralDecisionTree(
        (decision_fn_1): Linear(in_features=96, out_features=64, bias=True)
        (activation_fn_1): Tanh()
        (dropout_1): Dropout(p=0.2, inplace=False)
        (decision_fn_2): Linear(in_features=64, out_features=64, bias=True)
        (activation_fn_2): Tanh()
        (dropout_2): Dropout(p=0.2, inplace=False)
        (decision_fn_3): Linear(in_features=64, out_features=32, bias=True)
        (activation_fn_3): Sigmoid()
        (mu_dropout): Dropout(p=0.6, inplace=False)
      )
      (104): NeuralDecisionTree(
        (decision_fn_1): Linear(in_features=96, out_features=64, bias=True)
        (activation_fn_1): Tanh()
        (dropout_1): Dropout(p=0.2, inplace=False)
        (decision_fn_2): Linear(in_features=64, out_features=64, bias=True)
        (activation_fn_2): Tanh()
        (dropout_2): Dropout(p=0.2, inplace=False)
        (decision_fn_3): Linear(in_features=64, out_features=32, bias=True)
        (activation_fn_3): Sigmoid()
        (mu_dropout): Dropout(p=0.6, inplace=False)
      )
      (105): NeuralDecisionTree(
        (decision_fn_1): Linear(in_features=96, out_features=64, bias=True)
        (activation_fn_1): Tanh()
        (dropout_1): Dropout(p=0.2, inplace=False)
        (decision_fn_2): Linear(in_features=64, out_features=64, bias=True)
        (activation_fn_2): Tanh()
        (dropout_2): Dropout(p=0.2, inplace=False)
        (decision_fn_3): Linear(in_features=64, out_features=32, bias=True)
        (activation_fn_3): Sigmoid()
        (mu_dropout): Dropout(p=0.6, inplace=False)
      )
      (106): NeuralDecisionTree(
        (decision_fn_1): Linear(in_features=96, out_features=64, bias=True)
        (activation_fn_1): Tanh()
        (dropout_1): Dropout(p=0.2, inplace=False)
        (decision_fn_2): Linear(in_features=64, out_features=64, bias=True)
        (activation_fn_2): Tanh()
        (dropout_2): Dropout(p=0.2, inplace=False)
        (decision_fn_3): Linear(in_features=64, out_features=32, bias=True)
        (activation_fn_3): Sigmoid()
        (mu_dropout): Dropout(p=0.6, inplace=False)
      )
      (107): NeuralDecisionTree(
        (decision_fn_1): Linear(in_features=96, out_features=64, bias=True)
        (activation_fn_1): Tanh()
        (dropout_1): Dropout(p=0.2, inplace=False)
        (decision_fn_2): Linear(in_features=64, out_features=64, bias=True)
        (activation_fn_2): Tanh()
        (dropout_2): Dropout(p=0.2, inplace=False)
        (decision_fn_3): Linear(in_features=64, out_features=32, bias=True)
        (activation_fn_3): Sigmoid()
        (mu_dropout): Dropout(p=0.6, inplace=False)
      )
      (108): NeuralDecisionTree(
        (decision_fn_1): Linear(in_features=96, out_features=64, bias=True)
        (activation_fn_1): Tanh()
        (dropout_1): Dropout(p=0.2, inplace=False)
        (decision_fn_2): Linear(in_features=64, out_features=64, bias=True)
        (activation_fn_2): Tanh()
        (dropout_2): Dropout(p=0.2, inplace=False)
        (decision_fn_3): Linear(in_features=64, out_features=32, bias=True)
        (activation_fn_3): Sigmoid()
        (mu_dropout): Dropout(p=0.6, inplace=False)
      )
      (109): NeuralDecisionTree(
        (decision_fn_1): Linear(in_features=96, out_features=64, bias=True)
        (activation_fn_1): Tanh()
        (dropout_1): Dropout(p=0.2, inplace=False)
        (decision_fn_2): Linear(in_features=64, out_features=64, bias=True)
        (activation_fn_2): Tanh()
        (dropout_2): Dropout(p=0.2, inplace=False)
        (decision_fn_3): Linear(in_features=64, out_features=32, bias=True)
        (activation_fn_3): Sigmoid()
        (mu_dropout): Dropout(p=0.6, inplace=False)
      )
      (110): NeuralDecisionTree(
        (decision_fn_1): Linear(in_features=96, out_features=64, bias=True)
        (activation_fn_1): Tanh()
        (dropout_1): Dropout(p=0.2, inplace=False)
        (decision_fn_2): Linear(in_features=64, out_features=64, bias=True)
        (activation_fn_2): Tanh()
        (dropout_2): Dropout(p=0.2, inplace=False)
        (decision_fn_3): Linear(in_features=64, out_features=32, bias=True)
        (activation_fn_3): Sigmoid()
        (mu_dropout): Dropout(p=0.6, inplace=False)
      )
      (111): NeuralDecisionTree(
        (decision_fn_1): Linear(in_features=96, out_features=64, bias=True)
        (activation_fn_1): Tanh()
        (dropout_1): Dropout(p=0.2, inplace=False)
        (decision_fn_2): Linear(in_features=64, out_features=64, bias=True)
        (activation_fn_2): Tanh()
        (dropout_2): Dropout(p=0.2, inplace=False)
        (decision_fn_3): Linear(in_features=64, out_features=32, bias=True)
        (activation_fn_3): Sigmoid()
        (mu_dropout): Dropout(p=0.6, inplace=False)
      )
      (112): NeuralDecisionTree(
        (decision_fn_1): Linear(in_features=96, out_features=64, bias=True)
        (activation_fn_1): Tanh()
        (dropout_1): Dropout(p=0.2, inplace=False)
        (decision_fn_2): Linear(in_features=64, out_features=64, bias=True)
        (activation_fn_2): Tanh()
        (dropout_2): Dropout(p=0.2, inplace=False)
        (decision_fn_3): Linear(in_features=64, out_features=32, bias=True)
        (activation_fn_3): Sigmoid()
        (mu_dropout): Dropout(p=0.6, inplace=False)
      )
      (113): NeuralDecisionTree(
        (decision_fn_1): Linear(in_features=96, out_features=64, bias=True)
        (activation_fn_1): Tanh()
        (dropout_1): Dropout(p=0.2, inplace=False)
        (decision_fn_2): Linear(in_features=64, out_features=64, bias=True)
        (activation_fn_2): Tanh()
        (dropout_2): Dropout(p=0.2, inplace=False)
        (decision_fn_3): Linear(in_features=64, out_features=32, bias=True)
        (activation_fn_3): Sigmoid()
        (mu_dropout): Dropout(p=0.6, inplace=False)
      )
      (114): NeuralDecisionTree(
        (decision_fn_1): Linear(in_features=96, out_features=64, bias=True)
        (activation_fn_1): Tanh()
        (dropout_1): Dropout(p=0.2, inplace=False)
        (decision_fn_2): Linear(in_features=64, out_features=64, bias=True)
        (activation_fn_2): Tanh()
        (dropout_2): Dropout(p=0.2, inplace=False)
        (decision_fn_3): Linear(in_features=64, out_features=32, bias=True)
        (activation_fn_3): Sigmoid()
        (mu_dropout): Dropout(p=0.6, inplace=False)
      )
      (115): NeuralDecisionTree(
        (decision_fn_1): Linear(in_features=96, out_features=64, bias=True)
        (activation_fn_1): Tanh()
        (dropout_1): Dropout(p=0.2, inplace=False)
        (decision_fn_2): Linear(in_features=64, out_features=64, bias=True)
        (activation_fn_2): Tanh()
        (dropout_2): Dropout(p=0.2, inplace=False)
        (decision_fn_3): Linear(in_features=64, out_features=32, bias=True)
        (activation_fn_3): Sigmoid()
        (mu_dropout): Dropout(p=0.6, inplace=False)
      )
      (116): NeuralDecisionTree(
        (decision_fn_1): Linear(in_features=96, out_features=64, bias=True)
        (activation_fn_1): Tanh()
        (dropout_1): Dropout(p=0.2, inplace=False)
        (decision_fn_2): Linear(in_features=64, out_features=64, bias=True)
        (activation_fn_2): Tanh()
        (dropout_2): Dropout(p=0.2, inplace=False)
        (decision_fn_3): Linear(in_features=64, out_features=32, bias=True)
        (activation_fn_3): Sigmoid()
        (mu_dropout): Dropout(p=0.6, inplace=False)
      )
      (117): NeuralDecisionTree(
        (decision_fn_1): Linear(in_features=96, out_features=64, bias=True)
        (activation_fn_1): Tanh()
        (dropout_1): Dropout(p=0.2, inplace=False)
        (decision_fn_2): Linear(in_features=64, out_features=64, bias=True)
        (activation_fn_2): Tanh()
        (dropout_2): Dropout(p=0.2, inplace=False)
        (decision_fn_3): Linear(in_features=64, out_features=32, bias=True)
        (activation_fn_3): Sigmoid()
        (mu_dropout): Dropout(p=0.6, inplace=False)
      )
      (118): NeuralDecisionTree(
        (decision_fn_1): Linear(in_features=96, out_features=64, bias=True)
        (activation_fn_1): Tanh()
        (dropout_1): Dropout(p=0.2, inplace=False)
        (decision_fn_2): Linear(in_features=64, out_features=64, bias=True)
        (activation_fn_2): Tanh()
        (dropout_2): Dropout(p=0.2, inplace=False)
        (decision_fn_3): Linear(in_features=64, out_features=32, bias=True)
        (activation_fn_3): Sigmoid()
        (mu_dropout): Dropout(p=0.6, inplace=False)
      )
      (119): NeuralDecisionTree(
        (decision_fn_1): Linear(in_features=96, out_features=64, bias=True)
        (activation_fn_1): Tanh()
        (dropout_1): Dropout(p=0.2, inplace=False)
        (decision_fn_2): Linear(in_features=64, out_features=64, bias=True)
        (activation_fn_2): Tanh()
        (dropout_2): Dropout(p=0.2, inplace=False)
        (decision_fn_3): Linear(in_features=64, out_features=32, bias=True)
        (activation_fn_3): Sigmoid()
        (mu_dropout): Dropout(p=0.6, inplace=False)
      )
      (120): NeuralDecisionTree(
        (decision_fn_1): Linear(in_features=96, out_features=64, bias=True)
        (activation_fn_1): Tanh()
        (dropout_1): Dropout(p=0.2, inplace=False)
        (decision_fn_2): Linear(in_features=64, out_features=64, bias=True)
        (activation_fn_2): Tanh()
        (dropout_2): Dropout(p=0.2, inplace=False)
        (decision_fn_3): Linear(in_features=64, out_features=32, bias=True)
        (activation_fn_3): Sigmoid()
        (mu_dropout): Dropout(p=0.6, inplace=False)
      )
      (121): NeuralDecisionTree(
        (decision_fn_1): Linear(in_features=96, out_features=64, bias=True)
        (activation_fn_1): Tanh()
        (dropout_1): Dropout(p=0.2, inplace=False)
        (decision_fn_2): Linear(in_features=64, out_features=64, bias=True)
        (activation_fn_2): Tanh()
        (dropout_2): Dropout(p=0.2, inplace=False)
        (decision_fn_3): Linear(in_features=64, out_features=32, bias=True)
        (activation_fn_3): Sigmoid()
        (mu_dropout): Dropout(p=0.6, inplace=False)
      )
      (122): NeuralDecisionTree(
        (decision_fn_1): Linear(in_features=96, out_features=64, bias=True)
        (activation_fn_1): Tanh()
        (dropout_1): Dropout(p=0.2, inplace=False)
        (decision_fn_2): Linear(in_features=64, out_features=64, bias=True)
        (activation_fn_2): Tanh()
        (dropout_2): Dropout(p=0.2, inplace=False)
        (decision_fn_3): Linear(in_features=64, out_features=32, bias=True)
        (activation_fn_3): Sigmoid()
        (mu_dropout): Dropout(p=0.6, inplace=False)
      )
      (123): NeuralDecisionTree(
        (decision_fn_1): Linear(in_features=96, out_features=64, bias=True)
        (activation_fn_1): Tanh()
        (dropout_1): Dropout(p=0.2, inplace=False)
        (decision_fn_2): Linear(in_features=64, out_features=64, bias=True)
        (activation_fn_2): Tanh()
        (dropout_2): Dropout(p=0.2, inplace=False)
        (decision_fn_3): Linear(in_features=64, out_features=32, bias=True)
        (activation_fn_3): Sigmoid()
        (mu_dropout): Dropout(p=0.6, inplace=False)
      )
      (124): NeuralDecisionTree(
        (decision_fn_1): Linear(in_features=96, out_features=64, bias=True)
        (activation_fn_1): Tanh()
        (dropout_1): Dropout(p=0.2, inplace=False)
        (decision_fn_2): Linear(in_features=64, out_features=64, bias=True)
        (activation_fn_2): Tanh()
        (dropout_2): Dropout(p=0.2, inplace=False)
        (decision_fn_3): Linear(in_features=64, out_features=32, bias=True)
        (activation_fn_3): Sigmoid()
        (mu_dropout): Dropout(p=0.6, inplace=False)
      )
      (125): NeuralDecisionTree(
        (decision_fn_1): Linear(in_features=96, out_features=64, bias=True)
        (activation_fn_1): Tanh()
        (dropout_1): Dropout(p=0.2, inplace=False)
        (decision_fn_2): Linear(in_features=64, out_features=64, bias=True)
        (activation_fn_2): Tanh()
        (dropout_2): Dropout(p=0.2, inplace=False)
        (decision_fn_3): Linear(in_features=64, out_features=32, bias=True)
        (activation_fn_3): Sigmoid()
        (mu_dropout): Dropout(p=0.6, inplace=False)
      )
      (126): NeuralDecisionTree(
        (decision_fn_1): Linear(in_features=96, out_features=64, bias=True)
        (activation_fn_1): Tanh()
        (dropout_1): Dropout(p=0.2, inplace=False)
        (decision_fn_2): Linear(in_features=64, out_features=64, bias=True)
        (activation_fn_2): Tanh()
        (dropout_2): Dropout(p=0.2, inplace=False)
        (decision_fn_3): Linear(in_features=64, out_features=32, bias=True)
        (activation_fn_3): Sigmoid()
        (mu_dropout): Dropout(p=0.6, inplace=False)
      )
      (127): NeuralDecisionTree(
        (decision_fn_1): Linear(in_features=96, out_features=64, bias=True)
        (activation_fn_1): Tanh()
        (dropout_1): Dropout(p=0.2, inplace=False)
        (decision_fn_2): Linear(in_features=64, out_features=64, bias=True)
        (activation_fn_2): Tanh()
        (dropout_2): Dropout(p=0.2, inplace=False)
        (decision_fn_3): Linear(in_features=64, out_features=32, bias=True)
        (activation_fn_3): Sigmoid()
        (mu_dropout): Dropout(p=0.6, inplace=False)
      )
      (128): NeuralDecisionTree(
        (decision_fn_1): Linear(in_features=96, out_features=64, bias=True)
        (activation_fn_1): Tanh()
        (dropout_1): Dropout(p=0.2, inplace=False)
        (decision_fn_2): Linear(in_features=64, out_features=64, bias=True)
        (activation_fn_2): Tanh()
        (dropout_2): Dropout(p=0.2, inplace=False)
        (decision_fn_3): Linear(in_features=64, out_features=32, bias=True)
        (activation_fn_3): Sigmoid()
        (mu_dropout): Dropout(p=0.6, inplace=False)
      )
      (129): NeuralDecisionTree(
        (decision_fn_1): Linear(in_features=96, out_features=64, bias=True)
        (activation_fn_1): Tanh()
        (dropout_1): Dropout(p=0.2, inplace=False)
        (decision_fn_2): Linear(in_features=64, out_features=64, bias=True)
        (activation_fn_2): Tanh()
        (dropout_2): Dropout(p=0.2, inplace=False)
        (decision_fn_3): Linear(in_features=64, out_features=32, bias=True)
        (activation_fn_3): Sigmoid()
        (mu_dropout): Dropout(p=0.6, inplace=False)
      )
      (130): NeuralDecisionTree(
        (decision_fn_1): Linear(in_features=96, out_features=64, bias=True)
        (activation_fn_1): Tanh()
        (dropout_1): Dropout(p=0.2, inplace=False)
        (decision_fn_2): Linear(in_features=64, out_features=64, bias=True)
        (activation_fn_2): Tanh()
        (dropout_2): Dropout(p=0.2, inplace=False)
        (decision_fn_3): Linear(in_features=64, out_features=32, bias=True)
        (activation_fn_3): Sigmoid()
        (mu_dropout): Dropout(p=0.6, inplace=False)
      )
      (131): NeuralDecisionTree(
        (decision_fn_1): Linear(in_features=96, out_features=64, bias=True)
        (activation_fn_1): Tanh()
        (dropout_1): Dropout(p=0.2, inplace=False)
        (decision_fn_2): Linear(in_features=64, out_features=64, bias=True)
        (activation_fn_2): Tanh()
        (dropout_2): Dropout(p=0.2, inplace=False)
        (decision_fn_3): Linear(in_features=64, out_features=32, bias=True)
        (activation_fn_3): Sigmoid()
        (mu_dropout): Dropout(p=0.6, inplace=False)
      )
      (132): NeuralDecisionTree(
        (decision_fn_1): Linear(in_features=96, out_features=64, bias=True)
        (activation_fn_1): Tanh()
        (dropout_1): Dropout(p=0.2, inplace=False)
        (decision_fn_2): Linear(in_features=64, out_features=64, bias=True)
        (activation_fn_2): Tanh()
        (dropout_2): Dropout(p=0.2, inplace=False)
        (decision_fn_3): Linear(in_features=64, out_features=32, bias=True)
        (activation_fn_3): Sigmoid()
        (mu_dropout): Dropout(p=0.6, inplace=False)
      )
      (133): NeuralDecisionTree(
        (decision_fn_1): Linear(in_features=96, out_features=64, bias=True)
        (activation_fn_1): Tanh()
        (dropout_1): Dropout(p=0.2, inplace=False)
        (decision_fn_2): Linear(in_features=64, out_features=64, bias=True)
        (activation_fn_2): Tanh()
        (dropout_2): Dropout(p=0.2, inplace=False)
        (decision_fn_3): Linear(in_features=64, out_features=32, bias=True)
        (activation_fn_3): Sigmoid()
        (mu_dropout): Dropout(p=0.6, inplace=False)
      )
      (134): NeuralDecisionTree(
        (decision_fn_1): Linear(in_features=96, out_features=64, bias=True)
        (activation_fn_1): Tanh()
        (dropout_1): Dropout(p=0.2, inplace=False)
        (decision_fn_2): Linear(in_features=64, out_features=64, bias=True)
        (activation_fn_2): Tanh()
        (dropout_2): Dropout(p=0.2, inplace=False)
        (decision_fn_3): Linear(in_features=64, out_features=32, bias=True)
        (activation_fn_3): Sigmoid()
        (mu_dropout): Dropout(p=0.6, inplace=False)
      )
      (135): NeuralDecisionTree(
        (decision_fn_1): Linear(in_features=96, out_features=64, bias=True)
        (activation_fn_1): Tanh()
        (dropout_1): Dropout(p=0.2, inplace=False)
        (decision_fn_2): Linear(in_features=64, out_features=64, bias=True)
        (activation_fn_2): Tanh()
        (dropout_2): Dropout(p=0.2, inplace=False)
        (decision_fn_3): Linear(in_features=64, out_features=32, bias=True)
        (activation_fn_3): Sigmoid()
        (mu_dropout): Dropout(p=0.6, inplace=False)
      )
      (136): NeuralDecisionTree(
        (decision_fn_1): Linear(in_features=96, out_features=64, bias=True)
        (activation_fn_1): Tanh()
        (dropout_1): Dropout(p=0.2, inplace=False)
        (decision_fn_2): Linear(in_features=64, out_features=64, bias=True)
        (activation_fn_2): Tanh()
        (dropout_2): Dropout(p=0.2, inplace=False)
        (decision_fn_3): Linear(in_features=64, out_features=32, bias=True)
        (activation_fn_3): Sigmoid()
        (mu_dropout): Dropout(p=0.6, inplace=False)
      )
      (137): NeuralDecisionTree(
        (decision_fn_1): Linear(in_features=96, out_features=64, bias=True)
        (activation_fn_1): Tanh()
        (dropout_1): Dropout(p=0.2, inplace=False)
        (decision_fn_2): Linear(in_features=64, out_features=64, bias=True)
        (activation_fn_2): Tanh()
        (dropout_2): Dropout(p=0.2, inplace=False)
        (decision_fn_3): Linear(in_features=64, out_features=32, bias=True)
        (activation_fn_3): Sigmoid()
        (mu_dropout): Dropout(p=0.6, inplace=False)
      )
      (138): NeuralDecisionTree(
        (decision_fn_1): Linear(in_features=96, out_features=64, bias=True)
        (activation_fn_1): Tanh()
        (dropout_1): Dropout(p=0.2, inplace=False)
        (decision_fn_2): Linear(in_features=64, out_features=64, bias=True)
        (activation_fn_2): Tanh()
        (dropout_2): Dropout(p=0.2, inplace=False)
        (decision_fn_3): Linear(in_features=64, out_features=32, bias=True)
        (activation_fn_3): Sigmoid()
        (mu_dropout): Dropout(p=0.6, inplace=False)
      )
      (139): NeuralDecisionTree(
        (decision_fn_1): Linear(in_features=96, out_features=64, bias=True)
        (activation_fn_1): Tanh()
        (dropout_1): Dropout(p=0.2, inplace=False)
        (decision_fn_2): Linear(in_features=64, out_features=64, bias=True)
        (activation_fn_2): Tanh()
        (dropout_2): Dropout(p=0.2, inplace=False)
        (decision_fn_3): Linear(in_features=64, out_features=32, bias=True)
        (activation_fn_3): Sigmoid()
        (mu_dropout): Dropout(p=0.6, inplace=False)
      )
      (140): NeuralDecisionTree(
        (decision_fn_1): Linear(in_features=96, out_features=64, bias=True)
        (activation_fn_1): Tanh()
        (dropout_1): Dropout(p=0.2, inplace=False)
        (decision_fn_2): Linear(in_features=64, out_features=64, bias=True)
        (activation_fn_2): Tanh()
        (dropout_2): Dropout(p=0.2, inplace=False)
        (decision_fn_3): Linear(in_features=64, out_features=32, bias=True)
        (activation_fn_3): Sigmoid()
        (mu_dropout): Dropout(p=0.6, inplace=False)
      )
      (141): NeuralDecisionTree(
        (decision_fn_1): Linear(in_features=96, out_features=64, bias=True)
        (activation_fn_1): Tanh()
        (dropout_1): Dropout(p=0.2, inplace=False)
        (decision_fn_2): Linear(in_features=64, out_features=64, bias=True)
        (activation_fn_2): Tanh()
        (dropout_2): Dropout(p=0.2, inplace=False)
        (decision_fn_3): Linear(in_features=64, out_features=32, bias=True)
        (activation_fn_3): Sigmoid()
        (mu_dropout): Dropout(p=0.6, inplace=False)
      )
      (142): NeuralDecisionTree(
        (decision_fn_1): Linear(in_features=96, out_features=64, bias=True)
        (activation_fn_1): Tanh()
        (dropout_1): Dropout(p=0.2, inplace=False)
        (decision_fn_2): Linear(in_features=64, out_features=64, bias=True)
        (activation_fn_2): Tanh()
        (dropout_2): Dropout(p=0.2, inplace=False)
        (decision_fn_3): Linear(in_features=64, out_features=32, bias=True)
        (activation_fn_3): Sigmoid()
        (mu_dropout): Dropout(p=0.6, inplace=False)
      )
      (143): NeuralDecisionTree(
        (decision_fn_1): Linear(in_features=96, out_features=64, bias=True)
        (activation_fn_1): Tanh()
        (dropout_1): Dropout(p=0.2, inplace=False)
        (decision_fn_2): Linear(in_features=64, out_features=64, bias=True)
        (activation_fn_2): Tanh()
        (dropout_2): Dropout(p=0.2, inplace=False)
        (decision_fn_3): Linear(in_features=64, out_features=32, bias=True)
        (activation_fn_3): Sigmoid()
        (mu_dropout): Dropout(p=0.6, inplace=False)
      )
      (144): NeuralDecisionTree(
        (decision_fn_1): Linear(in_features=96, out_features=64, bias=True)
        (activation_fn_1): Tanh()
        (dropout_1): Dropout(p=0.2, inplace=False)
        (decision_fn_2): Linear(in_features=64, out_features=64, bias=True)
        (activation_fn_2): Tanh()
        (dropout_2): Dropout(p=0.2, inplace=False)
        (decision_fn_3): Linear(in_features=64, out_features=32, bias=True)
        (activation_fn_3): Sigmoid()
        (mu_dropout): Dropout(p=0.6, inplace=False)
      )
      (145): NeuralDecisionTree(
        (decision_fn_1): Linear(in_features=96, out_features=64, bias=True)
        (activation_fn_1): Tanh()
        (dropout_1): Dropout(p=0.2, inplace=False)
        (decision_fn_2): Linear(in_features=64, out_features=64, bias=True)
        (activation_fn_2): Tanh()
        (dropout_2): Dropout(p=0.2, inplace=False)
        (decision_fn_3): Linear(in_features=64, out_features=32, bias=True)
        (activation_fn_3): Sigmoid()
        (mu_dropout): Dropout(p=0.6, inplace=False)
      )
      (146): NeuralDecisionTree(
        (decision_fn_1): Linear(in_features=96, out_features=64, bias=True)
        (activation_fn_1): Tanh()
        (dropout_1): Dropout(p=0.2, inplace=False)
        (decision_fn_2): Linear(in_features=64, out_features=64, bias=True)
        (activation_fn_2): Tanh()
        (dropout_2): Dropout(p=0.2, inplace=False)
        (decision_fn_3): Linear(in_features=64, out_features=32, bias=True)
        (activation_fn_3): Sigmoid()
        (mu_dropout): Dropout(p=0.6, inplace=False)
      )
      (147): NeuralDecisionTree(
        (decision_fn_1): Linear(in_features=96, out_features=64, bias=True)
        (activation_fn_1): Tanh()
        (dropout_1): Dropout(p=0.2, inplace=False)
        (decision_fn_2): Linear(in_features=64, out_features=64, bias=True)
        (activation_fn_2): Tanh()
        (dropout_2): Dropout(p=0.2, inplace=False)
        (decision_fn_3): Linear(in_features=64, out_features=32, bias=True)
        (activation_fn_3): Sigmoid()
        (mu_dropout): Dropout(p=0.6, inplace=False)
      )
      (148): NeuralDecisionTree(
        (decision_fn_1): Linear(in_features=96, out_features=64, bias=True)
        (activation_fn_1): Tanh()
        (dropout_1): Dropout(p=0.2, inplace=False)
        (decision_fn_2): Linear(in_features=64, out_features=64, bias=True)
        (activation_fn_2): Tanh()
        (dropout_2): Dropout(p=0.2, inplace=False)
        (decision_fn_3): Linear(in_features=64, out_features=32, bias=True)
        (activation_fn_3): Sigmoid()
        (mu_dropout): Dropout(p=0.6, inplace=False)
      )
      (149): NeuralDecisionTree(
        (decision_fn_1): Linear(in_features=96, out_features=64, bias=True)
        (activation_fn_1): Tanh()
        (dropout_1): Dropout(p=0.2, inplace=False)
        (decision_fn_2): Linear(in_features=64, out_features=64, bias=True)
        (activation_fn_2): Tanh()
        (dropout_2): Dropout(p=0.2, inplace=False)
        (decision_fn_3): Linear(in_features=64, out_features=32, bias=True)
        (activation_fn_3): Sigmoid()
        (mu_dropout): Dropout(p=0.6, inplace=False)
      )
      (150): NeuralDecisionTree(
        (decision_fn_1): Linear(in_features=96, out_features=64, bias=True)
        (activation_fn_1): Tanh()
        (dropout_1): Dropout(p=0.2, inplace=False)
        (decision_fn_2): Linear(in_features=64, out_features=64, bias=True)
        (activation_fn_2): Tanh()
        (dropout_2): Dropout(p=0.2, inplace=False)
        (decision_fn_3): Linear(in_features=64, out_features=32, bias=True)
        (activation_fn_3): Sigmoid()
        (mu_dropout): Dropout(p=0.6, inplace=False)
      )
      (151): NeuralDecisionTree(
        (decision_fn_1): Linear(in_features=96, out_features=64, bias=True)
        (activation_fn_1): Tanh()
        (dropout_1): Dropout(p=0.2, inplace=False)
        (decision_fn_2): Linear(in_features=64, out_features=64, bias=True)
        (activation_fn_2): Tanh()
        (dropout_2): Dropout(p=0.2, inplace=False)
        (decision_fn_3): Linear(in_features=64, out_features=32, bias=True)
        (activation_fn_3): Sigmoid()
        (mu_dropout): Dropout(p=0.6, inplace=False)
      )
      (152): NeuralDecisionTree(
        (decision_fn_1): Linear(in_features=96, out_features=64, bias=True)
        (activation_fn_1): Tanh()
        (dropout_1): Dropout(p=0.2, inplace=False)
        (decision_fn_2): Linear(in_features=64, out_features=64, bias=True)
        (activation_fn_2): Tanh()
        (dropout_2): Dropout(p=0.2, inplace=False)
        (decision_fn_3): Linear(in_features=64, out_features=32, bias=True)
        (activation_fn_3): Sigmoid()
        (mu_dropout): Dropout(p=0.6, inplace=False)
      )
      (153): NeuralDecisionTree(
        (decision_fn_1): Linear(in_features=96, out_features=64, bias=True)
        (activation_fn_1): Tanh()
        (dropout_1): Dropout(p=0.2, inplace=False)
        (decision_fn_2): Linear(in_features=64, out_features=64, bias=True)
        (activation_fn_2): Tanh()
        (dropout_2): Dropout(p=0.2, inplace=False)
        (decision_fn_3): Linear(in_features=64, out_features=32, bias=True)
        (activation_fn_3): Sigmoid()
        (mu_dropout): Dropout(p=0.6, inplace=False)
      )
      (154): NeuralDecisionTree(
        (decision_fn_1): Linear(in_features=96, out_features=64, bias=True)
        (activation_fn_1): Tanh()
        (dropout_1): Dropout(p=0.2, inplace=False)
        (decision_fn_2): Linear(in_features=64, out_features=64, bias=True)
        (activation_fn_2): Tanh()
        (dropout_2): Dropout(p=0.2, inplace=False)
        (decision_fn_3): Linear(in_features=64, out_features=32, bias=True)
        (activation_fn_3): Sigmoid()
        (mu_dropout): Dropout(p=0.6, inplace=False)
      )
      (155): NeuralDecisionTree(
        (decision_fn_1): Linear(in_features=96, out_features=64, bias=True)
        (activation_fn_1): Tanh()
        (dropout_1): Dropout(p=0.2, inplace=False)
        (decision_fn_2): Linear(in_features=64, out_features=64, bias=True)
        (activation_fn_2): Tanh()
        (dropout_2): Dropout(p=0.2, inplace=False)
        (decision_fn_3): Linear(in_features=64, out_features=32, bias=True)
        (activation_fn_3): Sigmoid()
        (mu_dropout): Dropout(p=0.6, inplace=False)
      )
      (156): NeuralDecisionTree(
        (decision_fn_1): Linear(in_features=96, out_features=64, bias=True)
        (activation_fn_1): Tanh()
        (dropout_1): Dropout(p=0.2, inplace=False)
        (decision_fn_2): Linear(in_features=64, out_features=64, bias=True)
        (activation_fn_2): Tanh()
        (dropout_2): Dropout(p=0.2, inplace=False)
        (decision_fn_3): Linear(in_features=64, out_features=32, bias=True)
        (activation_fn_3): Sigmoid()
        (mu_dropout): Dropout(p=0.6, inplace=False)
      )
      (157): NeuralDecisionTree(
        (decision_fn_1): Linear(in_features=96, out_features=64, bias=True)
        (activation_fn_1): Tanh()
        (dropout_1): Dropout(p=0.2, inplace=False)
        (decision_fn_2): Linear(in_features=64, out_features=64, bias=True)
        (activation_fn_2): Tanh()
        (dropout_2): Dropout(p=0.2, inplace=False)
        (decision_fn_3): Linear(in_features=64, out_features=32, bias=True)
        (activation_fn_3): Sigmoid()
        (mu_dropout): Dropout(p=0.6, inplace=False)
      )
      (158): NeuralDecisionTree(
        (decision_fn_1): Linear(in_features=96, out_features=64, bias=True)
        (activation_fn_1): Tanh()
        (dropout_1): Dropout(p=0.2, inplace=False)
        (decision_fn_2): Linear(in_features=64, out_features=64, bias=True)
        (activation_fn_2): Tanh()
        (dropout_2): Dropout(p=0.2, inplace=False)
        (decision_fn_3): Linear(in_features=64, out_features=32, bias=True)
        (activation_fn_3): Sigmoid()
        (mu_dropout): Dropout(p=0.6, inplace=False)
      )
      (159): NeuralDecisionTree(
        (decision_fn_1): Linear(in_features=96, out_features=64, bias=True)
        (activation_fn_1): Tanh()
        (dropout_1): Dropout(p=0.2, inplace=False)
        (decision_fn_2): Linear(in_features=64, out_features=64, bias=True)
        (activation_fn_2): Tanh()
        (dropout_2): Dropout(p=0.2, inplace=False)
        (decision_fn_3): Linear(in_features=64, out_features=32, bias=True)
        (activation_fn_3): Sigmoid()
        (mu_dropout): Dropout(p=0.6, inplace=False)
      )
      (160): NeuralDecisionTree(
        (decision_fn_1): Linear(in_features=96, out_features=64, bias=True)
        (activation_fn_1): Tanh()
        (dropout_1): Dropout(p=0.2, inplace=False)
        (decision_fn_2): Linear(in_features=64, out_features=64, bias=True)
        (activation_fn_2): Tanh()
        (dropout_2): Dropout(p=0.2, inplace=False)
        (decision_fn_3): Linear(in_features=64, out_features=32, bias=True)
        (activation_fn_3): Sigmoid()
        (mu_dropout): Dropout(p=0.6, inplace=False)
      )
      (161): NeuralDecisionTree(
        (decision_fn_1): Linear(in_features=96, out_features=64, bias=True)
        (activation_fn_1): Tanh()
        (dropout_1): Dropout(p=0.2, inplace=False)
        (decision_fn_2): Linear(in_features=64, out_features=64, bias=True)
        (activation_fn_2): Tanh()
        (dropout_2): Dropout(p=0.2, inplace=False)
        (decision_fn_3): Linear(in_features=64, out_features=32, bias=True)
        (activation_fn_3): Sigmoid()
        (mu_dropout): Dropout(p=0.6, inplace=False)
      )
      (162): NeuralDecisionTree(
        (decision_fn_1): Linear(in_features=96, out_features=64, bias=True)
        (activation_fn_1): Tanh()
        (dropout_1): Dropout(p=0.2, inplace=False)
        (decision_fn_2): Linear(in_features=64, out_features=64, bias=True)
        (activation_fn_2): Tanh()
        (dropout_2): Dropout(p=0.2, inplace=False)
        (decision_fn_3): Linear(in_features=64, out_features=32, bias=True)
        (activation_fn_3): Sigmoid()
        (mu_dropout): Dropout(p=0.6, inplace=False)
      )
      (163): NeuralDecisionTree(
        (decision_fn_1): Linear(in_features=96, out_features=64, bias=True)
        (activation_fn_1): Tanh()
        (dropout_1): Dropout(p=0.2, inplace=False)
        (decision_fn_2): Linear(in_features=64, out_features=64, bias=True)
        (activation_fn_2): Tanh()
        (dropout_2): Dropout(p=0.2, inplace=False)
        (decision_fn_3): Linear(in_features=64, out_features=32, bias=True)
        (activation_fn_3): Sigmoid()
        (mu_dropout): Dropout(p=0.6, inplace=False)
      )
      (164): NeuralDecisionTree(
        (decision_fn_1): Linear(in_features=96, out_features=64, bias=True)
        (activation_fn_1): Tanh()
        (dropout_1): Dropout(p=0.2, inplace=False)
        (decision_fn_2): Linear(in_features=64, out_features=64, bias=True)
        (activation_fn_2): Tanh()
        (dropout_2): Dropout(p=0.2, inplace=False)
        (decision_fn_3): Linear(in_features=64, out_features=32, bias=True)
        (activation_fn_3): Sigmoid()
        (mu_dropout): Dropout(p=0.6, inplace=False)
      )
      (165): NeuralDecisionTree(
        (decision_fn_1): Linear(in_features=96, out_features=64, bias=True)
        (activation_fn_1): Tanh()
        (dropout_1): Dropout(p=0.2, inplace=False)
        (decision_fn_2): Linear(in_features=64, out_features=64, bias=True)
        (activation_fn_2): Tanh()
        (dropout_2): Dropout(p=0.2, inplace=False)
        (decision_fn_3): Linear(in_features=64, out_features=32, bias=True)
        (activation_fn_3): Sigmoid()
        (mu_dropout): Dropout(p=0.6, inplace=False)
      )
      (166): NeuralDecisionTree(
        (decision_fn_1): Linear(in_features=96, out_features=64, bias=True)
        (activation_fn_1): Tanh()
        (dropout_1): Dropout(p=0.2, inplace=False)
        (decision_fn_2): Linear(in_features=64, out_features=64, bias=True)
        (activation_fn_2): Tanh()
        (dropout_2): Dropout(p=0.2, inplace=False)
        (decision_fn_3): Linear(in_features=64, out_features=32, bias=True)
        (activation_fn_3): Sigmoid()
        (mu_dropout): Dropout(p=0.6, inplace=False)
      )
      (167): NeuralDecisionTree(
        (decision_fn_1): Linear(in_features=96, out_features=64, bias=True)
        (activation_fn_1): Tanh()
        (dropout_1): Dropout(p=0.2, inplace=False)
        (decision_fn_2): Linear(in_features=64, out_features=64, bias=True)
        (activation_fn_2): Tanh()
        (dropout_2): Dropout(p=0.2, inplace=False)
        (decision_fn_3): Linear(in_features=64, out_features=32, bias=True)
        (activation_fn_3): Sigmoid()
        (mu_dropout): Dropout(p=0.6, inplace=False)
      )
      (168): NeuralDecisionTree(
        (decision_fn_1): Linear(in_features=96, out_features=64, bias=True)
        (activation_fn_1): Tanh()
        (dropout_1): Dropout(p=0.2, inplace=False)
        (decision_fn_2): Linear(in_features=64, out_features=64, bias=True)
        (activation_fn_2): Tanh()
        (dropout_2): Dropout(p=0.2, inplace=False)
        (decision_fn_3): Linear(in_features=64, out_features=32, bias=True)
        (activation_fn_3): Sigmoid()
        (mu_dropout): Dropout(p=0.6, inplace=False)
      )
      (169): NeuralDecisionTree(
        (decision_fn_1): Linear(in_features=96, out_features=64, bias=True)
        (activation_fn_1): Tanh()
        (dropout_1): Dropout(p=0.2, inplace=False)
        (decision_fn_2): Linear(in_features=64, out_features=64, bias=True)
        (activation_fn_2): Tanh()
        (dropout_2): Dropout(p=0.2, inplace=False)
        (decision_fn_3): Linear(in_features=64, out_features=32, bias=True)
        (activation_fn_3): Sigmoid()
        (mu_dropout): Dropout(p=0.6, inplace=False)
      )
      (170): NeuralDecisionTree(
        (decision_fn_1): Linear(in_features=96, out_features=64, bias=True)
        (activation_fn_1): Tanh()
        (dropout_1): Dropout(p=0.2, inplace=False)
        (decision_fn_2): Linear(in_features=64, out_features=64, bias=True)
        (activation_fn_2): Tanh()
        (dropout_2): Dropout(p=0.2, inplace=False)
        (decision_fn_3): Linear(in_features=64, out_features=32, bias=True)
        (activation_fn_3): Sigmoid()
        (mu_dropout): Dropout(p=0.6, inplace=False)
      )
      (171): NeuralDecisionTree(
        (decision_fn_1): Linear(in_features=96, out_features=64, bias=True)
        (activation_fn_1): Tanh()
        (dropout_1): Dropout(p=0.2, inplace=False)
        (decision_fn_2): Linear(in_features=64, out_features=64, bias=True)
        (activation_fn_2): Tanh()
        (dropout_2): Dropout(p=0.2, inplace=False)
        (decision_fn_3): Linear(in_features=64, out_features=32, bias=True)
        (activation_fn_3): Sigmoid()
        (mu_dropout): Dropout(p=0.6, inplace=False)
      )
      (172): NeuralDecisionTree(
        (decision_fn_1): Linear(in_features=96, out_features=64, bias=True)
        (activation_fn_1): Tanh()
        (dropout_1): Dropout(p=0.2, inplace=False)
        (decision_fn_2): Linear(in_features=64, out_features=64, bias=True)
        (activation_fn_2): Tanh()
        (dropout_2): Dropout(p=0.2, inplace=False)
        (decision_fn_3): Linear(in_features=64, out_features=32, bias=True)
        (activation_fn_3): Sigmoid()
        (mu_dropout): Dropout(p=0.6, inplace=False)
      )
      (173): NeuralDecisionTree(
        (decision_fn_1): Linear(in_features=96, out_features=64, bias=True)
        (activation_fn_1): Tanh()
        (dropout_1): Dropout(p=0.2, inplace=False)
        (decision_fn_2): Linear(in_features=64, out_features=64, bias=True)
        (activation_fn_2): Tanh()
        (dropout_2): Dropout(p=0.2, inplace=False)
        (decision_fn_3): Linear(in_features=64, out_features=32, bias=True)
        (activation_fn_3): Sigmoid()
        (mu_dropout): Dropout(p=0.6, inplace=False)
      )
      (174): NeuralDecisionTree(
        (decision_fn_1): Linear(in_features=96, out_features=64, bias=True)
        (activation_fn_1): Tanh()
        (dropout_1): Dropout(p=0.2, inplace=False)
        (decision_fn_2): Linear(in_features=64, out_features=64, bias=True)
        (activation_fn_2): Tanh()
        (dropout_2): Dropout(p=0.2, inplace=False)
        (decision_fn_3): Linear(in_features=64, out_features=32, bias=True)
        (activation_fn_3): Sigmoid()
        (mu_dropout): Dropout(p=0.6, inplace=False)
      )
      (175): NeuralDecisionTree(
        (decision_fn_1): Linear(in_features=96, out_features=64, bias=True)
        (activation_fn_1): Tanh()
        (dropout_1): Dropout(p=0.2, inplace=False)
        (decision_fn_2): Linear(in_features=64, out_features=64, bias=True)
        (activation_fn_2): Tanh()
        (dropout_2): Dropout(p=0.2, inplace=False)
        (decision_fn_3): Linear(in_features=64, out_features=32, bias=True)
        (activation_fn_3): Sigmoid()
        (mu_dropout): Dropout(p=0.6, inplace=False)
      )
      (176): NeuralDecisionTree(
        (decision_fn_1): Linear(in_features=96, out_features=64, bias=True)
        (activation_fn_1): Tanh()
        (dropout_1): Dropout(p=0.2, inplace=False)
        (decision_fn_2): Linear(in_features=64, out_features=64, bias=True)
        (activation_fn_2): Tanh()
        (dropout_2): Dropout(p=0.2, inplace=False)
        (decision_fn_3): Linear(in_features=64, out_features=32, bias=True)
        (activation_fn_3): Sigmoid()
        (mu_dropout): Dropout(p=0.6, inplace=False)
      )
      (177): NeuralDecisionTree(
        (decision_fn_1): Linear(in_features=96, out_features=64, bias=True)
        (activation_fn_1): Tanh()
        (dropout_1): Dropout(p=0.2, inplace=False)
        (decision_fn_2): Linear(in_features=64, out_features=64, bias=True)
        (activation_fn_2): Tanh()
        (dropout_2): Dropout(p=0.2, inplace=False)
        (decision_fn_3): Linear(in_features=64, out_features=32, bias=True)
        (activation_fn_3): Sigmoid()
        (mu_dropout): Dropout(p=0.6, inplace=False)
      )
      (178): NeuralDecisionTree(
        (decision_fn_1): Linear(in_features=96, out_features=64, bias=True)
        (activation_fn_1): Tanh()
        (dropout_1): Dropout(p=0.2, inplace=False)
        (decision_fn_2): Linear(in_features=64, out_features=64, bias=True)
        (activation_fn_2): Tanh()
        (dropout_2): Dropout(p=0.2, inplace=False)
        (decision_fn_3): Linear(in_features=64, out_features=32, bias=True)
        (activation_fn_3): Sigmoid()
        (mu_dropout): Dropout(p=0.6, inplace=False)
      )
      (179): NeuralDecisionTree(
        (decision_fn_1): Linear(in_features=96, out_features=64, bias=True)
        (activation_fn_1): Tanh()
        (dropout_1): Dropout(p=0.2, inplace=False)
        (decision_fn_2): Linear(in_features=64, out_features=64, bias=True)
        (activation_fn_2): Tanh()
        (dropout_2): Dropout(p=0.2, inplace=False)
        (decision_fn_3): Linear(in_features=64, out_features=32, bias=True)
        (activation_fn_3): Sigmoid()
        (mu_dropout): Dropout(p=0.6, inplace=False)
      )
      (180): NeuralDecisionTree(
        (decision_fn_1): Linear(in_features=96, out_features=64, bias=True)
        (activation_fn_1): Tanh()
        (dropout_1): Dropout(p=0.2, inplace=False)
        (decision_fn_2): Linear(in_features=64, out_features=64, bias=True)
        (activation_fn_2): Tanh()
        (dropout_2): Dropout(p=0.2, inplace=False)
        (decision_fn_3): Linear(in_features=64, out_features=32, bias=True)
        (activation_fn_3): Sigmoid()
        (mu_dropout): Dropout(p=0.6, inplace=False)
      )
      (181): NeuralDecisionTree(
        (decision_fn_1): Linear(in_features=96, out_features=64, bias=True)
        (activation_fn_1): Tanh()
        (dropout_1): Dropout(p=0.2, inplace=False)
        (decision_fn_2): Linear(in_features=64, out_features=64, bias=True)
        (activation_fn_2): Tanh()
        (dropout_2): Dropout(p=0.2, inplace=False)
        (decision_fn_3): Linear(in_features=64, out_features=32, bias=True)
        (activation_fn_3): Sigmoid()
        (mu_dropout): Dropout(p=0.6, inplace=False)
      )
      (182): NeuralDecisionTree(
        (decision_fn_1): Linear(in_features=96, out_features=64, bias=True)
        (activation_fn_1): Tanh()
        (dropout_1): Dropout(p=0.2, inplace=False)
        (decision_fn_2): Linear(in_features=64, out_features=64, bias=True)
        (activation_fn_2): Tanh()
        (dropout_2): Dropout(p=0.2, inplace=False)
        (decision_fn_3): Linear(in_features=64, out_features=32, bias=True)
        (activation_fn_3): Sigmoid()
        (mu_dropout): Dropout(p=0.6, inplace=False)
      )
      (183): NeuralDecisionTree(
        (decision_fn_1): Linear(in_features=96, out_features=64, bias=True)
        (activation_fn_1): Tanh()
        (dropout_1): Dropout(p=0.2, inplace=False)
        (decision_fn_2): Linear(in_features=64, out_features=64, bias=True)
        (activation_fn_2): Tanh()
        (dropout_2): Dropout(p=0.2, inplace=False)
        (decision_fn_3): Linear(in_features=64, out_features=32, bias=True)
        (activation_fn_3): Sigmoid()
        (mu_dropout): Dropout(p=0.6, inplace=False)
      )
      (184): NeuralDecisionTree(
        (decision_fn_1): Linear(in_features=96, out_features=64, bias=True)
        (activation_fn_1): Tanh()
        (dropout_1): Dropout(p=0.2, inplace=False)
        (decision_fn_2): Linear(in_features=64, out_features=64, bias=True)
        (activation_fn_2): Tanh()
        (dropout_2): Dropout(p=0.2, inplace=False)
        (decision_fn_3): Linear(in_features=64, out_features=32, bias=True)
        (activation_fn_3): Sigmoid()
        (mu_dropout): Dropout(p=0.6, inplace=False)
      )
      (185): NeuralDecisionTree(
        (decision_fn_1): Linear(in_features=96, out_features=64, bias=True)
        (activation_fn_1): Tanh()
        (dropout_1): Dropout(p=0.2, inplace=False)
        (decision_fn_2): Linear(in_features=64, out_features=64, bias=True)
        (activation_fn_2): Tanh()
        (dropout_2): Dropout(p=0.2, inplace=False)
        (decision_fn_3): Linear(in_features=64, out_features=32, bias=True)
        (activation_fn_3): Sigmoid()
        (mu_dropout): Dropout(p=0.6, inplace=False)
      )
      (186): NeuralDecisionTree(
        (decision_fn_1): Linear(in_features=96, out_features=64, bias=True)
        (activation_fn_1): Tanh()
        (dropout_1): Dropout(p=0.2, inplace=False)
        (decision_fn_2): Linear(in_features=64, out_features=64, bias=True)
        (activation_fn_2): Tanh()
        (dropout_2): Dropout(p=0.2, inplace=False)
        (decision_fn_3): Linear(in_features=64, out_features=32, bias=True)
        (activation_fn_3): Sigmoid()
        (mu_dropout): Dropout(p=0.6, inplace=False)
      )
      (187): NeuralDecisionTree(
        (decision_fn_1): Linear(in_features=96, out_features=64, bias=True)
        (activation_fn_1): Tanh()
        (dropout_1): Dropout(p=0.2, inplace=False)
        (decision_fn_2): Linear(in_features=64, out_features=64, bias=True)
        (activation_fn_2): Tanh()
        (dropout_2): Dropout(p=0.2, inplace=False)
        (decision_fn_3): Linear(in_features=64, out_features=32, bias=True)
        (activation_fn_3): Sigmoid()
        (mu_dropout): Dropout(p=0.6, inplace=False)
      )
      (188): NeuralDecisionTree(
        (decision_fn_1): Linear(in_features=96, out_features=64, bias=True)
        (activation_fn_1): Tanh()
        (dropout_1): Dropout(p=0.2, inplace=False)
        (decision_fn_2): Linear(in_features=64, out_features=64, bias=True)
        (activation_fn_2): Tanh()
        (dropout_2): Dropout(p=0.2, inplace=False)
        (decision_fn_3): Linear(in_features=64, out_features=32, bias=True)
        (activation_fn_3): Sigmoid()
        (mu_dropout): Dropout(p=0.6, inplace=False)
      )
      (189): NeuralDecisionTree(
        (decision_fn_1): Linear(in_features=96, out_features=64, bias=True)
        (activation_fn_1): Tanh()
        (dropout_1): Dropout(p=0.2, inplace=False)
        (decision_fn_2): Linear(in_features=64, out_features=64, bias=True)
        (activation_fn_2): Tanh()
        (dropout_2): Dropout(p=0.2, inplace=False)
        (decision_fn_3): Linear(in_features=64, out_features=32, bias=True)
        (activation_fn_3): Sigmoid()
        (mu_dropout): Dropout(p=0.6, inplace=False)
      )
      (190): NeuralDecisionTree(
        (decision_fn_1): Linear(in_features=96, out_features=64, bias=True)
        (activation_fn_1): Tanh()
        (dropout_1): Dropout(p=0.2, inplace=False)
        (decision_fn_2): Linear(in_features=64, out_features=64, bias=True)
        (activation_fn_2): Tanh()
        (dropout_2): Dropout(p=0.2, inplace=False)
        (decision_fn_3): Linear(in_features=64, out_features=32, bias=True)
        (activation_fn_3): Sigmoid()
        (mu_dropout): Dropout(p=0.6, inplace=False)
      )
      (191): NeuralDecisionTree(
        (decision_fn_1): Linear(in_features=96, out_features=64, bias=True)
        (activation_fn_1): Tanh()
        (dropout_1): Dropout(p=0.2, inplace=False)
        (decision_fn_2): Linear(in_features=64, out_features=64, bias=True)
        (activation_fn_2): Tanh()
        (dropout_2): Dropout(p=0.2, inplace=False)
        (decision_fn_3): Linear(in_features=64, out_features=32, bias=True)
        (activation_fn_3): Sigmoid()
        (mu_dropout): Dropout(p=0.6, inplace=False)
      )
      (192): NeuralDecisionTree(
        (decision_fn_1): Linear(in_features=96, out_features=64, bias=True)
        (activation_fn_1): Tanh()
        (dropout_1): Dropout(p=0.2, inplace=False)
        (decision_fn_2): Linear(in_features=64, out_features=64, bias=True)
        (activation_fn_2): Tanh()
        (dropout_2): Dropout(p=0.2, inplace=False)
        (decision_fn_3): Linear(in_features=64, out_features=32, bias=True)
        (activation_fn_3): Sigmoid()
        (mu_dropout): Dropout(p=0.6, inplace=False)
      )
      (193): NeuralDecisionTree(
        (decision_fn_1): Linear(in_features=96, out_features=64, bias=True)
        (activation_fn_1): Tanh()
        (dropout_1): Dropout(p=0.2, inplace=False)
        (decision_fn_2): Linear(in_features=64, out_features=64, bias=True)
        (activation_fn_2): Tanh()
        (dropout_2): Dropout(p=0.2, inplace=False)
        (decision_fn_3): Linear(in_features=64, out_features=32, bias=True)
        (activation_fn_3): Sigmoid()
        (mu_dropout): Dropout(p=0.6, inplace=False)
      )
      (194): NeuralDecisionTree(
        (decision_fn_1): Linear(in_features=96, out_features=64, bias=True)
        (activation_fn_1): Tanh()
        (dropout_1): Dropout(p=0.2, inplace=False)
        (decision_fn_2): Linear(in_features=64, out_features=64, bias=True)
        (activation_fn_2): Tanh()
        (dropout_2): Dropout(p=0.2, inplace=False)
        (decision_fn_3): Linear(in_features=64, out_features=32, bias=True)
        (activation_fn_3): Sigmoid()
        (mu_dropout): Dropout(p=0.6, inplace=False)
      )
      (195): NeuralDecisionTree(
        (decision_fn_1): Linear(in_features=96, out_features=64, bias=True)
        (activation_fn_1): Tanh()
        (dropout_1): Dropout(p=0.2, inplace=False)
        (decision_fn_2): Linear(in_features=64, out_features=64, bias=True)
        (activation_fn_2): Tanh()
        (dropout_2): Dropout(p=0.2, inplace=False)
        (decision_fn_3): Linear(in_features=64, out_features=32, bias=True)
        (activation_fn_3): Sigmoid()
        (mu_dropout): Dropout(p=0.6, inplace=False)
      )
      (196): NeuralDecisionTree(
        (decision_fn_1): Linear(in_features=96, out_features=64, bias=True)
        (activation_fn_1): Tanh()
        (dropout_1): Dropout(p=0.2, inplace=False)
        (decision_fn_2): Linear(in_features=64, out_features=64, bias=True)
        (activation_fn_2): Tanh()
        (dropout_2): Dropout(p=0.2, inplace=False)
        (decision_fn_3): Linear(in_features=64, out_features=32, bias=True)
        (activation_fn_3): Sigmoid()
        (mu_dropout): Dropout(p=0.6, inplace=False)
      )
      (197): NeuralDecisionTree(
        (decision_fn_1): Linear(in_features=96, out_features=64, bias=True)
        (activation_fn_1): Tanh()
        (dropout_1): Dropout(p=0.2, inplace=False)
        (decision_fn_2): Linear(in_features=64, out_features=64, bias=True)
        (activation_fn_2): Tanh()
        (dropout_2): Dropout(p=0.2, inplace=False)
        (decision_fn_3): Linear(in_features=64, out_features=32, bias=True)
        (activation_fn_3): Sigmoid()
        (mu_dropout): Dropout(p=0.6, inplace=False)
      )
      (198): NeuralDecisionTree(
        (decision_fn_1): Linear(in_features=96, out_features=64, bias=True)
        (activation_fn_1): Tanh()
        (dropout_1): Dropout(p=0.2, inplace=False)
        (decision_fn_2): Linear(in_features=64, out_features=64, bias=True)
        (activation_fn_2): Tanh()
        (dropout_2): Dropout(p=0.2, inplace=False)
        (decision_fn_3): Linear(in_features=64, out_features=32, bias=True)
        (activation_fn_3): Sigmoid()
        (mu_dropout): Dropout(p=0.6, inplace=False)
      )
      (199): NeuralDecisionTree(
        (decision_fn_1): Linear(in_features=96, out_features=64, bias=True)
        (activation_fn_1): Tanh()
        (dropout_1): Dropout(p=0.2, inplace=False)
        (decision_fn_2): Linear(in_features=64, out_features=64, bias=True)
        (activation_fn_2): Tanh()
        (dropout_2): Dropout(p=0.2, inplace=False)
        (decision_fn_3): Linear(in_features=64, out_features=32, bias=True)
        (activation_fn_3): Sigmoid()
        (mu_dropout): Dropout(p=0.6, inplace=False)
      )
      (200): NeuralDecisionTree(
        (decision_fn_1): Linear(in_features=96, out_features=64, bias=True)
        (activation_fn_1): Tanh()
        (dropout_1): Dropout(p=0.2, inplace=False)
        (decision_fn_2): Linear(in_features=64, out_features=64, bias=True)
        (activation_fn_2): Tanh()
        (dropout_2): Dropout(p=0.2, inplace=False)
        (decision_fn_3): Linear(in_features=64, out_features=32, bias=True)
        (activation_fn_3): Sigmoid()
        (mu_dropout): Dropout(p=0.6, inplace=False)
      )
      (201): NeuralDecisionTree(
        (decision_fn_1): Linear(in_features=96, out_features=64, bias=True)
        (activation_fn_1): Tanh()
        (dropout_1): Dropout(p=0.2, inplace=False)
        (decision_fn_2): Linear(in_features=64, out_features=64, bias=True)
        (activation_fn_2): Tanh()
        (dropout_2): Dropout(p=0.2, inplace=False)
        (decision_fn_3): Linear(in_features=64, out_features=32, bias=True)
        (activation_fn_3): Sigmoid()
        (mu_dropout): Dropout(p=0.6, inplace=False)
      )
      (202): NeuralDecisionTree(
        (decision_fn_1): Linear(in_features=96, out_features=64, bias=True)
        (activation_fn_1): Tanh()
        (dropout_1): Dropout(p=0.2, inplace=False)
        (decision_fn_2): Linear(in_features=64, out_features=64, bias=True)
        (activation_fn_2): Tanh()
        (dropout_2): Dropout(p=0.2, inplace=False)
        (decision_fn_3): Linear(in_features=64, out_features=32, bias=True)
        (activation_fn_3): Sigmoid()
        (mu_dropout): Dropout(p=0.6, inplace=False)
      )
      (203): NeuralDecisionTree(
        (decision_fn_1): Linear(in_features=96, out_features=64, bias=True)
        (activation_fn_1): Tanh()
        (dropout_1): Dropout(p=0.2, inplace=False)
        (decision_fn_2): Linear(in_features=64, out_features=64, bias=True)
        (activation_fn_2): Tanh()
        (dropout_2): Dropout(p=0.2, inplace=False)
        (decision_fn_3): Linear(in_features=64, out_features=32, bias=True)
        (activation_fn_3): Sigmoid()
        (mu_dropout): Dropout(p=0.6, inplace=False)
      )
      (204): NeuralDecisionTree(
        (decision_fn_1): Linear(in_features=96, out_features=64, bias=True)
        (activation_fn_1): Tanh()
        (dropout_1): Dropout(p=0.2, inplace=False)
        (decision_fn_2): Linear(in_features=64, out_features=64, bias=True)
        (activation_fn_2): Tanh()
        (dropout_2): Dropout(p=0.2, inplace=False)
        (decision_fn_3): Linear(in_features=64, out_features=32, bias=True)
        (activation_fn_3): Sigmoid()
        (mu_dropout): Dropout(p=0.6, inplace=False)
      )
      (205): NeuralDecisionTree(
        (decision_fn_1): Linear(in_features=96, out_features=64, bias=True)
        (activation_fn_1): Tanh()
        (dropout_1): Dropout(p=0.2, inplace=False)
        (decision_fn_2): Linear(in_features=64, out_features=64, bias=True)
        (activation_fn_2): Tanh()
        (dropout_2): Dropout(p=0.2, inplace=False)
        (decision_fn_3): Linear(in_features=64, out_features=32, bias=True)
        (activation_fn_3): Sigmoid()
        (mu_dropout): Dropout(p=0.6, inplace=False)
      )
      (206): NeuralDecisionTree(
        (decision_fn_1): Linear(in_features=96, out_features=64, bias=True)
        (activation_fn_1): Tanh()
        (dropout_1): Dropout(p=0.2, inplace=False)
        (decision_fn_2): Linear(in_features=64, out_features=64, bias=True)
        (activation_fn_2): Tanh()
        (dropout_2): Dropout(p=0.2, inplace=False)
        (decision_fn_3): Linear(in_features=64, out_features=32, bias=True)
        (activation_fn_3): Sigmoid()
        (mu_dropout): Dropout(p=0.6, inplace=False)
      )
      (207): NeuralDecisionTree(
        (decision_fn_1): Linear(in_features=96, out_features=64, bias=True)
        (activation_fn_1): Tanh()
        (dropout_1): Dropout(p=0.2, inplace=False)
        (decision_fn_2): Linear(in_features=64, out_features=64, bias=True)
        (activation_fn_2): Tanh()
        (dropout_2): Dropout(p=0.2, inplace=False)
        (decision_fn_3): Linear(in_features=64, out_features=32, bias=True)
        (activation_fn_3): Sigmoid()
        (mu_dropout): Dropout(p=0.6, inplace=False)
      )
      (208): NeuralDecisionTree(
        (decision_fn_1): Linear(in_features=96, out_features=64, bias=True)
        (activation_fn_1): Tanh()
        (dropout_1): Dropout(p=0.2, inplace=False)
        (decision_fn_2): Linear(in_features=64, out_features=64, bias=True)
        (activation_fn_2): Tanh()
        (dropout_2): Dropout(p=0.2, inplace=False)
        (decision_fn_3): Linear(in_features=64, out_features=32, bias=True)
        (activation_fn_3): Sigmoid()
        (mu_dropout): Dropout(p=0.6, inplace=False)
      )
      (209): NeuralDecisionTree(
        (decision_fn_1): Linear(in_features=96, out_features=64, bias=True)
        (activation_fn_1): Tanh()
        (dropout_1): Dropout(p=0.2, inplace=False)
        (decision_fn_2): Linear(in_features=64, out_features=64, bias=True)
        (activation_fn_2): Tanh()
        (dropout_2): Dropout(p=0.2, inplace=False)
        (decision_fn_3): Linear(in_features=64, out_features=32, bias=True)
        (activation_fn_3): Sigmoid()
        (mu_dropout): Dropout(p=0.6, inplace=False)
      )
      (210): NeuralDecisionTree(
        (decision_fn_1): Linear(in_features=96, out_features=64, bias=True)
        (activation_fn_1): Tanh()
        (dropout_1): Dropout(p=0.2, inplace=False)
        (decision_fn_2): Linear(in_features=64, out_features=64, bias=True)
        (activation_fn_2): Tanh()
        (dropout_2): Dropout(p=0.2, inplace=False)
        (decision_fn_3): Linear(in_features=64, out_features=32, bias=True)
        (activation_fn_3): Sigmoid()
        (mu_dropout): Dropout(p=0.6, inplace=False)
      )
      (211): NeuralDecisionTree(
        (decision_fn_1): Linear(in_features=96, out_features=64, bias=True)
        (activation_fn_1): Tanh()
        (dropout_1): Dropout(p=0.2, inplace=False)
        (decision_fn_2): Linear(in_features=64, out_features=64, bias=True)
        (activation_fn_2): Tanh()
        (dropout_2): Dropout(p=0.2, inplace=False)
        (decision_fn_3): Linear(in_features=64, out_features=32, bias=True)
        (activation_fn_3): Sigmoid()
        (mu_dropout): Dropout(p=0.6, inplace=False)
      )
      (212): NeuralDecisionTree(
        (decision_fn_1): Linear(in_features=96, out_features=64, bias=True)
        (activation_fn_1): Tanh()
        (dropout_1): Dropout(p=0.2, inplace=False)
        (decision_fn_2): Linear(in_features=64, out_features=64, bias=True)
        (activation_fn_2): Tanh()
        (dropout_2): Dropout(p=0.2, inplace=False)
        (decision_fn_3): Linear(in_features=64, out_features=32, bias=True)
        (activation_fn_3): Sigmoid()
        (mu_dropout): Dropout(p=0.6, inplace=False)
      )
      (213): NeuralDecisionTree(
        (decision_fn_1): Linear(in_features=96, out_features=64, bias=True)
        (activation_fn_1): Tanh()
        (dropout_1): Dropout(p=0.2, inplace=False)
        (decision_fn_2): Linear(in_features=64, out_features=64, bias=True)
        (activation_fn_2): Tanh()
        (dropout_2): Dropout(p=0.2, inplace=False)
        (decision_fn_3): Linear(in_features=64, out_features=32, bias=True)
        (activation_fn_3): Sigmoid()
        (mu_dropout): Dropout(p=0.6, inplace=False)
      )
      (214): NeuralDecisionTree(
        (decision_fn_1): Linear(in_features=96, out_features=64, bias=True)
        (activation_fn_1): Tanh()
        (dropout_1): Dropout(p=0.2, inplace=False)
        (decision_fn_2): Linear(in_features=64, out_features=64, bias=True)
        (activation_fn_2): Tanh()
        (dropout_2): Dropout(p=0.2, inplace=False)
        (decision_fn_3): Linear(in_features=64, out_features=32, bias=True)
        (activation_fn_3): Sigmoid()
        (mu_dropout): Dropout(p=0.6, inplace=False)
      )
      (215): NeuralDecisionTree(
        (decision_fn_1): Linear(in_features=96, out_features=64, bias=True)
        (activation_fn_1): Tanh()
        (dropout_1): Dropout(p=0.2, inplace=False)
        (decision_fn_2): Linear(in_features=64, out_features=64, bias=True)
        (activation_fn_2): Tanh()
        (dropout_2): Dropout(p=0.2, inplace=False)
        (decision_fn_3): Linear(in_features=64, out_features=32, bias=True)
        (activation_fn_3): Sigmoid()
        (mu_dropout): Dropout(p=0.6, inplace=False)
      )
      (216): NeuralDecisionTree(
        (decision_fn_1): Linear(in_features=96, out_features=64, bias=True)
        (activation_fn_1): Tanh()
        (dropout_1): Dropout(p=0.2, inplace=False)
        (decision_fn_2): Linear(in_features=64, out_features=64, bias=True)
        (activation_fn_2): Tanh()
        (dropout_2): Dropout(p=0.2, inplace=False)
        (decision_fn_3): Linear(in_features=64, out_features=32, bias=True)
        (activation_fn_3): Sigmoid()
        (mu_dropout): Dropout(p=0.6, inplace=False)
      )
      (217): NeuralDecisionTree(
        (decision_fn_1): Linear(in_features=96, out_features=64, bias=True)
        (activation_fn_1): Tanh()
        (dropout_1): Dropout(p=0.2, inplace=False)
        (decision_fn_2): Linear(in_features=64, out_features=64, bias=True)
        (activation_fn_2): Tanh()
        (dropout_2): Dropout(p=0.2, inplace=False)
        (decision_fn_3): Linear(in_features=64, out_features=32, bias=True)
        (activation_fn_3): Sigmoid()
        (mu_dropout): Dropout(p=0.6, inplace=False)
      )
      (218): NeuralDecisionTree(
        (decision_fn_1): Linear(in_features=96, out_features=64, bias=True)
        (activation_fn_1): Tanh()
        (dropout_1): Dropout(p=0.2, inplace=False)
        (decision_fn_2): Linear(in_features=64, out_features=64, bias=True)
        (activation_fn_2): Tanh()
        (dropout_2): Dropout(p=0.2, inplace=False)
        (decision_fn_3): Linear(in_features=64, out_features=32, bias=True)
        (activation_fn_3): Sigmoid()
        (mu_dropout): Dropout(p=0.6, inplace=False)
      )
      (219): NeuralDecisionTree(
        (decision_fn_1): Linear(in_features=96, out_features=64, bias=True)
        (activation_fn_1): Tanh()
        (dropout_1): Dropout(p=0.2, inplace=False)
        (decision_fn_2): Linear(in_features=64, out_features=64, bias=True)
        (activation_fn_2): Tanh()
        (dropout_2): Dropout(p=0.2, inplace=False)
        (decision_fn_3): Linear(in_features=64, out_features=32, bias=True)
        (activation_fn_3): Sigmoid()
        (mu_dropout): Dropout(p=0.6, inplace=False)
      )
      (220): NeuralDecisionTree(
        (decision_fn_1): Linear(in_features=96, out_features=64, bias=True)
        (activation_fn_1): Tanh()
        (dropout_1): Dropout(p=0.2, inplace=False)
        (decision_fn_2): Linear(in_features=64, out_features=64, bias=True)
        (activation_fn_2): Tanh()
        (dropout_2): Dropout(p=0.2, inplace=False)
        (decision_fn_3): Linear(in_features=64, out_features=32, bias=True)
        (activation_fn_3): Sigmoid()
        (mu_dropout): Dropout(p=0.6, inplace=False)
      )
      (221): NeuralDecisionTree(
        (decision_fn_1): Linear(in_features=96, out_features=64, bias=True)
        (activation_fn_1): Tanh()
        (dropout_1): Dropout(p=0.2, inplace=False)
        (decision_fn_2): Linear(in_features=64, out_features=64, bias=True)
        (activation_fn_2): Tanh()
        (dropout_2): Dropout(p=0.2, inplace=False)
        (decision_fn_3): Linear(in_features=64, out_features=32, bias=True)
        (activation_fn_3): Sigmoid()
        (mu_dropout): Dropout(p=0.6, inplace=False)
      )
      (222): NeuralDecisionTree(
        (decision_fn_1): Linear(in_features=96, out_features=64, bias=True)
        (activation_fn_1): Tanh()
        (dropout_1): Dropout(p=0.2, inplace=False)
        (decision_fn_2): Linear(in_features=64, out_features=64, bias=True)
        (activation_fn_2): Tanh()
        (dropout_2): Dropout(p=0.2, inplace=False)
        (decision_fn_3): Linear(in_features=64, out_features=32, bias=True)
        (activation_fn_3): Sigmoid()
        (mu_dropout): Dropout(p=0.6, inplace=False)
      )
      (223): NeuralDecisionTree(
        (decision_fn_1): Linear(in_features=96, out_features=64, bias=True)
        (activation_fn_1): Tanh()
        (dropout_1): Dropout(p=0.2, inplace=False)
        (decision_fn_2): Linear(in_features=64, out_features=64, bias=True)
        (activation_fn_2): Tanh()
        (dropout_2): Dropout(p=0.2, inplace=False)
        (decision_fn_3): Linear(in_features=64, out_features=32, bias=True)
        (activation_fn_3): Sigmoid()
        (mu_dropout): Dropout(p=0.6, inplace=False)
      )
      (224): NeuralDecisionTree(
        (decision_fn_1): Linear(in_features=96, out_features=64, bias=True)
        (activation_fn_1): Tanh()
        (dropout_1): Dropout(p=0.2, inplace=False)
        (decision_fn_2): Linear(in_features=64, out_features=64, bias=True)
        (activation_fn_2): Tanh()
        (dropout_2): Dropout(p=0.2, inplace=False)
        (decision_fn_3): Linear(in_features=64, out_features=32, bias=True)
        (activation_fn_3): Sigmoid()
        (mu_dropout): Dropout(p=0.6, inplace=False)
      )
      (225): NeuralDecisionTree(
        (decision_fn_1): Linear(in_features=96, out_features=64, bias=True)
        (activation_fn_1): Tanh()
        (dropout_1): Dropout(p=0.2, inplace=False)
        (decision_fn_2): Linear(in_features=64, out_features=64, bias=True)
        (activation_fn_2): Tanh()
        (dropout_2): Dropout(p=0.2, inplace=False)
        (decision_fn_3): Linear(in_features=64, out_features=32, bias=True)
        (activation_fn_3): Sigmoid()
        (mu_dropout): Dropout(p=0.6, inplace=False)
      )
      (226): NeuralDecisionTree(
        (decision_fn_1): Linear(in_features=96, out_features=64, bias=True)
        (activation_fn_1): Tanh()
        (dropout_1): Dropout(p=0.2, inplace=False)
        (decision_fn_2): Linear(in_features=64, out_features=64, bias=True)
        (activation_fn_2): Tanh()
        (dropout_2): Dropout(p=0.2, inplace=False)
        (decision_fn_3): Linear(in_features=64, out_features=32, bias=True)
        (activation_fn_3): Sigmoid()
        (mu_dropout): Dropout(p=0.6, inplace=False)
      )
      (227): NeuralDecisionTree(
        (decision_fn_1): Linear(in_features=96, out_features=64, bias=True)
        (activation_fn_1): Tanh()
        (dropout_1): Dropout(p=0.2, inplace=False)
        (decision_fn_2): Linear(in_features=64, out_features=64, bias=True)
        (activation_fn_2): Tanh()
        (dropout_2): Dropout(p=0.2, inplace=False)
        (decision_fn_3): Linear(in_features=64, out_features=32, bias=True)
        (activation_fn_3): Sigmoid()
        (mu_dropout): Dropout(p=0.6, inplace=False)
      )
      (228): NeuralDecisionTree(
        (decision_fn_1): Linear(in_features=96, out_features=64, bias=True)
        (activation_fn_1): Tanh()
        (dropout_1): Dropout(p=0.2, inplace=False)
        (decision_fn_2): Linear(in_features=64, out_features=64, bias=True)
        (activation_fn_2): Tanh()
        (dropout_2): Dropout(p=0.2, inplace=False)
        (decision_fn_3): Linear(in_features=64, out_features=32, bias=True)
        (activation_fn_3): Sigmoid()
        (mu_dropout): Dropout(p=0.6, inplace=False)
      )
      (229): NeuralDecisionTree(
        (decision_fn_1): Linear(in_features=96, out_features=64, bias=True)
        (activation_fn_1): Tanh()
        (dropout_1): Dropout(p=0.2, inplace=False)
        (decision_fn_2): Linear(in_features=64, out_features=64, bias=True)
        (activation_fn_2): Tanh()
        (dropout_2): Dropout(p=0.2, inplace=False)
        (decision_fn_3): Linear(in_features=64, out_features=32, bias=True)
        (activation_fn_3): Sigmoid()
        (mu_dropout): Dropout(p=0.6, inplace=False)
      )
      (230): NeuralDecisionTree(
        (decision_fn_1): Linear(in_features=96, out_features=64, bias=True)
        (activation_fn_1): Tanh()
        (dropout_1): Dropout(p=0.2, inplace=False)
        (decision_fn_2): Linear(in_features=64, out_features=64, bias=True)
        (activation_fn_2): Tanh()
        (dropout_2): Dropout(p=0.2, inplace=False)
        (decision_fn_3): Linear(in_features=64, out_features=32, bias=True)
        (activation_fn_3): Sigmoid()
        (mu_dropout): Dropout(p=0.6, inplace=False)
      )
      (231): NeuralDecisionTree(
        (decision_fn_1): Linear(in_features=96, out_features=64, bias=True)
        (activation_fn_1): Tanh()
        (dropout_1): Dropout(p=0.2, inplace=False)
        (decision_fn_2): Linear(in_features=64, out_features=64, bias=True)
        (activation_fn_2): Tanh()
        (dropout_2): Dropout(p=0.2, inplace=False)
        (decision_fn_3): Linear(in_features=64, out_features=32, bias=True)
        (activation_fn_3): Sigmoid()
        (mu_dropout): Dropout(p=0.6, inplace=False)
      )
      (232): NeuralDecisionTree(
        (decision_fn_1): Linear(in_features=96, out_features=64, bias=True)
        (activation_fn_1): Tanh()
        (dropout_1): Dropout(p=0.2, inplace=False)
        (decision_fn_2): Linear(in_features=64, out_features=64, bias=True)
        (activation_fn_2): Tanh()
        (dropout_2): Dropout(p=0.2, inplace=False)
        (decision_fn_3): Linear(in_features=64, out_features=32, bias=True)
        (activation_fn_3): Sigmoid()
        (mu_dropout): Dropout(p=0.6, inplace=False)
      )
      (233): NeuralDecisionTree(
        (decision_fn_1): Linear(in_features=96, out_features=64, bias=True)
        (activation_fn_1): Tanh()
        (dropout_1): Dropout(p=0.2, inplace=False)
        (decision_fn_2): Linear(in_features=64, out_features=64, bias=True)
        (activation_fn_2): Tanh()
        (dropout_2): Dropout(p=0.2, inplace=False)
        (decision_fn_3): Linear(in_features=64, out_features=32, bias=True)
        (activation_fn_3): Sigmoid()
        (mu_dropout): Dropout(p=0.6, inplace=False)
      )
      (234): NeuralDecisionTree(
        (decision_fn_1): Linear(in_features=96, out_features=64, bias=True)
        (activation_fn_1): Tanh()
        (dropout_1): Dropout(p=0.2, inplace=False)
        (decision_fn_2): Linear(in_features=64, out_features=64, bias=True)
        (activation_fn_2): Tanh()
        (dropout_2): Dropout(p=0.2, inplace=False)
        (decision_fn_3): Linear(in_features=64, out_features=32, bias=True)
        (activation_fn_3): Sigmoid()
        (mu_dropout): Dropout(p=0.6, inplace=False)
      )
      (235): NeuralDecisionTree(
        (decision_fn_1): Linear(in_features=96, out_features=64, bias=True)
        (activation_fn_1): Tanh()
        (dropout_1): Dropout(p=0.2, inplace=False)
        (decision_fn_2): Linear(in_features=64, out_features=64, bias=True)
        (activation_fn_2): Tanh()
        (dropout_2): Dropout(p=0.2, inplace=False)
        (decision_fn_3): Linear(in_features=64, out_features=32, bias=True)
        (activation_fn_3): Sigmoid()
        (mu_dropout): Dropout(p=0.6, inplace=False)
      )
      (236): NeuralDecisionTree(
        (decision_fn_1): Linear(in_features=96, out_features=64, bias=True)
        (activation_fn_1): Tanh()
        (dropout_1): Dropout(p=0.2, inplace=False)
        (decision_fn_2): Linear(in_features=64, out_features=64, bias=True)
        (activation_fn_2): Tanh()
        (dropout_2): Dropout(p=0.2, inplace=False)
        (decision_fn_3): Linear(in_features=64, out_features=32, bias=True)
        (activation_fn_3): Sigmoid()
        (mu_dropout): Dropout(p=0.6, inplace=False)
      )
      (237): NeuralDecisionTree(
        (decision_fn_1): Linear(in_features=96, out_features=64, bias=True)
        (activation_fn_1): Tanh()
        (dropout_1): Dropout(p=0.2, inplace=False)
        (decision_fn_2): Linear(in_features=64, out_features=64, bias=True)
        (activation_fn_2): Tanh()
        (dropout_2): Dropout(p=0.2, inplace=False)
        (decision_fn_3): Linear(in_features=64, out_features=32, bias=True)
        (activation_fn_3): Sigmoid()
        (mu_dropout): Dropout(p=0.6, inplace=False)
      )
      (238): NeuralDecisionTree(
        (decision_fn_1): Linear(in_features=96, out_features=64, bias=True)
        (activation_fn_1): Tanh()
        (dropout_1): Dropout(p=0.2, inplace=False)
        (decision_fn_2): Linear(in_features=64, out_features=64, bias=True)
        (activation_fn_2): Tanh()
        (dropout_2): Dropout(p=0.2, inplace=False)
        (decision_fn_3): Linear(in_features=64, out_features=32, bias=True)
        (activation_fn_3): Sigmoid()
        (mu_dropout): Dropout(p=0.6, inplace=False)
      )
      (239): NeuralDecisionTree(
        (decision_fn_1): Linear(in_features=96, out_features=64, bias=True)
        (activation_fn_1): Tanh()
        (dropout_1): Dropout(p=0.2, inplace=False)
        (decision_fn_2): Linear(in_features=64, out_features=64, bias=True)
        (activation_fn_2): Tanh()
        (dropout_2): Dropout(p=0.2, inplace=False)
        (decision_fn_3): Linear(in_features=64, out_features=32, bias=True)
        (activation_fn_3): Sigmoid()
        (mu_dropout): Dropout(p=0.6, inplace=False)
      )
      (240): NeuralDecisionTree(
        (decision_fn_1): Linear(in_features=96, out_features=64, bias=True)
        (activation_fn_1): Tanh()
        (dropout_1): Dropout(p=0.2, inplace=False)
        (decision_fn_2): Linear(in_features=64, out_features=64, bias=True)
        (activation_fn_2): Tanh()
        (dropout_2): Dropout(p=0.2, inplace=False)
        (decision_fn_3): Linear(in_features=64, out_features=32, bias=True)
        (activation_fn_3): Sigmoid()
        (mu_dropout): Dropout(p=0.6, inplace=False)
      )
      (241): NeuralDecisionTree(
        (decision_fn_1): Linear(in_features=96, out_features=64, bias=True)
        (activation_fn_1): Tanh()
        (dropout_1): Dropout(p=0.2, inplace=False)
        (decision_fn_2): Linear(in_features=64, out_features=64, bias=True)
        (activation_fn_2): Tanh()
        (dropout_2): Dropout(p=0.2, inplace=False)
        (decision_fn_3): Linear(in_features=64, out_features=32, bias=True)
        (activation_fn_3): Sigmoid()
        (mu_dropout): Dropout(p=0.6, inplace=False)
      )
      (242): NeuralDecisionTree(
        (decision_fn_1): Linear(in_features=96, out_features=64, bias=True)
        (activation_fn_1): Tanh()
        (dropout_1): Dropout(p=0.2, inplace=False)
        (decision_fn_2): Linear(in_features=64, out_features=64, bias=True)
        (activation_fn_2): Tanh()
        (dropout_2): Dropout(p=0.2, inplace=False)
        (decision_fn_3): Linear(in_features=64, out_features=32, bias=True)
        (activation_fn_3): Sigmoid()
        (mu_dropout): Dropout(p=0.6, inplace=False)
      )
      (243): NeuralDecisionTree(
        (decision_fn_1): Linear(in_features=96, out_features=64, bias=True)
        (activation_fn_1): Tanh()
        (dropout_1): Dropout(p=0.2, inplace=False)
        (decision_fn_2): Linear(in_features=64, out_features=64, bias=True)
        (activation_fn_2): Tanh()
        (dropout_2): Dropout(p=0.2, inplace=False)
        (decision_fn_3): Linear(in_features=64, out_features=32, bias=True)
        (activation_fn_3): Sigmoid()
        (mu_dropout): Dropout(p=0.6, inplace=False)
      )
      (244): NeuralDecisionTree(
        (decision_fn_1): Linear(in_features=96, out_features=64, bias=True)
        (activation_fn_1): Tanh()
        (dropout_1): Dropout(p=0.2, inplace=False)
        (decision_fn_2): Linear(in_features=64, out_features=64, bias=True)
        (activation_fn_2): Tanh()
        (dropout_2): Dropout(p=0.2, inplace=False)
        (decision_fn_3): Linear(in_features=64, out_features=32, bias=True)
        (activation_fn_3): Sigmoid()
        (mu_dropout): Dropout(p=0.6, inplace=False)
      )
      (245): NeuralDecisionTree(
        (decision_fn_1): Linear(in_features=96, out_features=64, bias=True)
        (activation_fn_1): Tanh()
        (dropout_1): Dropout(p=0.2, inplace=False)
        (decision_fn_2): Linear(in_features=64, out_features=64, bias=True)
        (activation_fn_2): Tanh()
        (dropout_2): Dropout(p=0.2, inplace=False)
        (decision_fn_3): Linear(in_features=64, out_features=32, bias=True)
        (activation_fn_3): Sigmoid()
        (mu_dropout): Dropout(p=0.6, inplace=False)
      )
      (246): NeuralDecisionTree(
        (decision_fn_1): Linear(in_features=96, out_features=64, bias=True)
        (activation_fn_1): Tanh()
        (dropout_1): Dropout(p=0.2, inplace=False)
        (decision_fn_2): Linear(in_features=64, out_features=64, bias=True)
        (activation_fn_2): Tanh()
        (dropout_2): Dropout(p=0.2, inplace=False)
        (decision_fn_3): Linear(in_features=64, out_features=32, bias=True)
        (activation_fn_3): Sigmoid()
        (mu_dropout): Dropout(p=0.6, inplace=False)
      )
      (247): NeuralDecisionTree(
        (decision_fn_1): Linear(in_features=96, out_features=64, bias=True)
        (activation_fn_1): Tanh()
        (dropout_1): Dropout(p=0.2, inplace=False)
        (decision_fn_2): Linear(in_features=64, out_features=64, bias=True)
        (activation_fn_2): Tanh()
        (dropout_2): Dropout(p=0.2, inplace=False)
        (decision_fn_3): Linear(in_features=64, out_features=32, bias=True)
        (activation_fn_3): Sigmoid()
        (mu_dropout): Dropout(p=0.6, inplace=False)
      )
      (248): NeuralDecisionTree(
        (decision_fn_1): Linear(in_features=96, out_features=64, bias=True)
        (activation_fn_1): Tanh()
        (dropout_1): Dropout(p=0.2, inplace=False)
        (decision_fn_2): Linear(in_features=64, out_features=64, bias=True)
        (activation_fn_2): Tanh()
        (dropout_2): Dropout(p=0.2, inplace=False)
        (decision_fn_3): Linear(in_features=64, out_features=32, bias=True)
        (activation_fn_3): Sigmoid()
        (mu_dropout): Dropout(p=0.6, inplace=False)
      )
      (249): NeuralDecisionTree(
        (decision_fn_1): Linear(in_features=96, out_features=64, bias=True)
        (activation_fn_1): Tanh()
        (dropout_1): Dropout(p=0.2, inplace=False)
        (decision_fn_2): Linear(in_features=64, out_features=64, bias=True)
        (activation_fn_2): Tanh()
        (dropout_2): Dropout(p=0.2, inplace=False)
        (decision_fn_3): Linear(in_features=64, out_features=32, bias=True)
        (activation_fn_3): Sigmoid()
        (mu_dropout): Dropout(p=0.6, inplace=False)
      )
      (250): NeuralDecisionTree(
        (decision_fn_1): Linear(in_features=96, out_features=64, bias=True)
        (activation_fn_1): Tanh()
        (dropout_1): Dropout(p=0.2, inplace=False)
        (decision_fn_2): Linear(in_features=64, out_features=64, bias=True)
        (activation_fn_2): Tanh()
        (dropout_2): Dropout(p=0.2, inplace=False)
        (decision_fn_3): Linear(in_features=64, out_features=32, bias=True)
        (activation_fn_3): Sigmoid()
        (mu_dropout): Dropout(p=0.6, inplace=False)
      )
      (251): NeuralDecisionTree(
        (decision_fn_1): Linear(in_features=96, out_features=64, bias=True)
        (activation_fn_1): Tanh()
        (dropout_1): Dropout(p=0.2, inplace=False)
        (decision_fn_2): Linear(in_features=64, out_features=64, bias=True)
        (activation_fn_2): Tanh()
        (dropout_2): Dropout(p=0.2, inplace=False)
        (decision_fn_3): Linear(in_features=64, out_features=32, bias=True)
        (activation_fn_3): Sigmoid()
        (mu_dropout): Dropout(p=0.6, inplace=False)
      )
      (252): NeuralDecisionTree(
        (decision_fn_1): Linear(in_features=96, out_features=64, bias=True)
        (activation_fn_1): Tanh()
        (dropout_1): Dropout(p=0.2, inplace=False)
        (decision_fn_2): Linear(in_features=64, out_features=64, bias=True)
        (activation_fn_2): Tanh()
        (dropout_2): Dropout(p=0.2, inplace=False)
        (decision_fn_3): Linear(in_features=64, out_features=32, bias=True)
        (activation_fn_3): Sigmoid()
        (mu_dropout): Dropout(p=0.6, inplace=False)
      )
      (253): NeuralDecisionTree(
        (decision_fn_1): Linear(in_features=96, out_features=64, bias=True)
        (activation_fn_1): Tanh()
        (dropout_1): Dropout(p=0.2, inplace=False)
        (decision_fn_2): Linear(in_features=64, out_features=64, bias=True)
        (activation_fn_2): Tanh()
        (dropout_2): Dropout(p=0.2, inplace=False)
        (decision_fn_3): Linear(in_features=64, out_features=32, bias=True)
        (activation_fn_3): Sigmoid()
        (mu_dropout): Dropout(p=0.6, inplace=False)
      )
      (254): NeuralDecisionTree(
        (decision_fn_1): Linear(in_features=96, out_features=64, bias=True)
        (activation_fn_1): Tanh()
        (dropout_1): Dropout(p=0.2, inplace=False)
        (decision_fn_2): Linear(in_features=64, out_features=64, bias=True)
        (activation_fn_2): Tanh()
        (dropout_2): Dropout(p=0.2, inplace=False)
        (decision_fn_3): Linear(in_features=64, out_features=32, bias=True)
        (activation_fn_3): Sigmoid()
        (mu_dropout): Dropout(p=0.6, inplace=False)
      )
      (255): NeuralDecisionTree(
        (decision_fn_1): Linear(in_features=96, out_features=64, bias=True)
        (activation_fn_1): Tanh()
        (dropout_1): Dropout(p=0.2, inplace=False)
        (decision_fn_2): Linear(in_features=64, out_features=64, bias=True)
        (activation_fn_2): Tanh()
        (dropout_2): Dropout(p=0.2, inplace=False)
        (decision_fn_3): Linear(in_features=64, out_features=32, bias=True)
        (activation_fn_3): Sigmoid()
        (mu_dropout): Dropout(p=0.6, inplace=False)
      )
    )
  )
)
start training
Batch 100: Loss = 10.7907, Time Elapsed = 122.71s
Batch 200: Loss = 10.5374, Time Elapsed = 115.48s
Batch 300: Loss = 10.4727, Time Elapsed = 115.32s
Batch 400: Loss = 10.4268, Time Elapsed = 115.63s
Batch 500: Loss = 10.3997, Time Elapsed = 115.32s
…
