Namespace(Ks='1,10,20', batch_size=1024, dataset_dir='datasets/yoochoose1_64', embedding_dim=32, epochs=300, feat_drop=0.4, log_interval=100, lr=0.0003, num_layers=3, num_workers=8, patience=8, valid_split=None, weight_decay=0.0001)
datasets/yoochoose1_64
reading dataset
Num trees: 16
Depth: 11
LESSR(
  (embedding): Embedding(17189, 32, max_norm=1)
  (layers): ModuleList(
    (0): EOPA(
      (batch_norm): BatchNorm1d(32, eps=1e-05, momentum=0.1, affine=True, track_running_stats=True)
      (feat_drop): Dropout(p=0.4, inplace=False)
      (gru): GRU(32, 32, batch_first=True)
      (fc_self): Linear(in_features=32, out_features=32, bias=False)
      (fc_neigh): Linear(in_features=32, out_features=32, bias=False)
      (activation): PReLU(num_parameters=32)
    )
    (1): SGAT(
      (batch_norm): BatchNorm1d(64, eps=1e-05, momentum=0.1, affine=True, track_running_stats=True)
      (feat_drop): Dropout(p=0.4, inplace=False)
      (fc_q): Linear(in_features=64, out_features=32, bias=True)
      (fc_k): Linear(in_features=64, out_features=32, bias=False)
      (fc_v): Linear(in_features=64, out_features=32, bias=False)
      (fc_e): Linear(in_features=32, out_features=1, bias=False)
      (activation): PReLU(num_parameters=32)
    )
    (2): EOPA(
      (batch_norm): BatchNorm1d(96, eps=1e-05, momentum=0.1, affine=True, track_running_stats=True)
      (feat_drop): Dropout(p=0.4, inplace=False)
      (gru): GRU(96, 96, batch_first=True)
      (fc_self): Linear(in_features=96, out_features=32, bias=False)
      (fc_neigh): Linear(in_features=96, out_features=32, bias=False)
      (activation): PReLU(num_parameters=32)
    )
  )
  (readout): AttnReadout(
    (batch_norm): BatchNorm1d(128, eps=1e-05, momentum=0.1, affine=True, track_running_stats=True)
    (feat_drop): Dropout(p=0.4, inplace=False)
    (fc_u): Linear(in_features=128, out_features=32, bias=False)
    (fc_v): Linear(in_features=128, out_features=32, bias=True)
    (fc_e): Linear(in_features=32, out_features=1, bias=False)
    (fc_out): Linear(in_features=128, out_features=32, bias=False)
    (activation): PReLU(num_parameters=32)
  )
  (batch_norm): BatchNorm1d(160, eps=1e-05, momentum=0.1, affine=True, track_running_stats=True)
  (feat_drop): Dropout(p=0.4, inplace=False)
  (fc_sr): Linear(in_features=160, out_features=32, bias=False)
  (RF): NeuralDecisionForest(
    (ensemble): ModuleList(
      (0): NeuralDecisionTree(
        (decision_fn_1): Linear(in_features=96, out_features=64, bias=True)
        (activation_fn_1): Tanh()
        (dropout_1): Dropout(p=0.2, inplace=False)
        (decision_fn_2): Linear(in_features=64, out_features=64, bias=True)
        (activation_fn_2): Tanh()
        (dropout_2): Dropout(p=0.2, inplace=False)
        (decision_fn_3): Linear(in_features=64, out_features=32, bias=True)
        (activation_fn_3): Sigmoid()
        (mu_dropout): Dropout(p=0.6, inplace=False)
      )
      (1): NeuralDecisionTree(
        (decision_fn_1): Linear(in_features=96, out_features=64, bias=True)
        (activation_fn_1): Tanh()
        (dropout_1): Dropout(p=0.2, inplace=False)
        (decision_fn_2): Linear(in_features=64, out_features=64, bias=True)
        (activation_fn_2): Tanh()
        (dropout_2): Dropout(p=0.2, inplace=False)
        (decision_fn_3): Linear(in_features=64, out_features=32, bias=True)
        (activation_fn_3): Sigmoid()
        (mu_dropout): Dropout(p=0.6, inplace=False)
      )
      (2): NeuralDecisionTree(
        (decision_fn_1): Linear(in_features=96, out_features=64, bias=True)
        (activation_fn_1): Tanh()
        (dropout_1): Dropout(p=0.2, inplace=False)
        (decision_fn_2): Linear(in_features=64, out_features=64, bias=True)
        (activation_fn_2): Tanh()
        (dropout_2): Dropout(p=0.2, inplace=False)
        (decision_fn_3): Linear(in_features=64, out_features=32, bias=True)
        (activation_fn_3): Sigmoid()
        (mu_dropout): Dropout(p=0.6, inplace=False)
      )
      (3): NeuralDecisionTree(
        (decision_fn_1): Linear(in_features=96, out_features=64, bias=True)
        (activation_fn_1): Tanh()
        (dropout_1): Dropout(p=0.2, inplace=False)
        (decision_fn_2): Linear(in_features=64, out_features=64, bias=True)
        (activation_fn_2): Tanh()
        (dropout_2): Dropout(p=0.2, inplace=False)
        (decision_fn_3): Linear(in_features=64, out_features=32, bias=True)
        (activation_fn_3): Sigmoid()
        (mu_dropout): Dropout(p=0.6, inplace=False)
      )
      (4): NeuralDecisionTree(
        (decision_fn_1): Linear(in_features=96, out_features=64, bias=True)
        (activation_fn_1): Tanh()
        (dropout_1): Dropout(p=0.2, inplace=False)
        (decision_fn_2): Linear(in_features=64, out_features=64, bias=True)
        (activation_fn_2): Tanh()
        (dropout_2): Dropout(p=0.2, inplace=False)
        (decision_fn_3): Linear(in_features=64, out_features=32, bias=True)
        (activation_fn_3): Sigmoid()
        (mu_dropout): Dropout(p=0.6, inplace=False)
      )
      (5): NeuralDecisionTree(
        (decision_fn_1): Linear(in_features=96, out_features=64, bias=True)
        (activation_fn_1): Tanh()
        (dropout_1): Dropout(p=0.2, inplace=False)
        (decision_fn_2): Linear(in_features=64, out_features=64, bias=True)
        (activation_fn_2): Tanh()
        (dropout_2): Dropout(p=0.2, inplace=False)
        (decision_fn_3): Linear(in_features=64, out_features=32, bias=True)
        (activation_fn_3): Sigmoid()
        (mu_dropout): Dropout(p=0.6, inplace=False)
      )
      (6): NeuralDecisionTree(
        (decision_fn_1): Linear(in_features=96, out_features=64, bias=True)
        (activation_fn_1): Tanh()
        (dropout_1): Dropout(p=0.2, inplace=False)
        (decision_fn_2): Linear(in_features=64, out_features=64, bias=True)
        (activation_fn_2): Tanh()
        (dropout_2): Dropout(p=0.2, inplace=False)
        (decision_fn_3): Linear(in_features=64, out_features=32, bias=True)
        (activation_fn_3): Sigmoid()
        (mu_dropout): Dropout(p=0.6, inplace=False)
      )
      (7): NeuralDecisionTree(
        (decision_fn_1): Linear(in_features=96, out_features=64, bias=True)
        (activation_fn_1): Tanh()
        (dropout_1): Dropout(p=0.2, inplace=False)
        (decision_fn_2): Linear(in_features=64, out_features=64, bias=True)
        (activation_fn_2): Tanh()
        (dropout_2): Dropout(p=0.2, inplace=False)
        (decision_fn_3): Linear(in_features=64, out_features=32, bias=True)
        (activation_fn_3): Sigmoid()
        (mu_dropout): Dropout(p=0.6, inplace=False)
      )
      (8): NeuralDecisionTree(
        (decision_fn_1): Linear(in_features=96, out_features=64, bias=True)
        (activation_fn_1): Tanh()
        (dropout_1): Dropout(p=0.2, inplace=False)
        (decision_fn_2): Linear(in_features=64, out_features=64, bias=True)
        (activation_fn_2): Tanh()
        (dropout_2): Dropout(p=0.2, inplace=False)
        (decision_fn_3): Linear(in_features=64, out_features=32, bias=True)
        (activation_fn_3): Sigmoid()
        (mu_dropout): Dropout(p=0.6, inplace=False)
      )
      (9): NeuralDecisionTree(
        (decision_fn_1): Linear(in_features=96, out_features=64, bias=True)
        (activation_fn_1): Tanh()
        (dropout_1): Dropout(p=0.2, inplace=False)
        (decision_fn_2): Linear(in_features=64, out_features=64, bias=True)
        (activation_fn_2): Tanh()
        (dropout_2): Dropout(p=0.2, inplace=False)
        (decision_fn_3): Linear(in_features=64, out_features=32, bias=True)
        (activation_fn_3): Sigmoid()
        (mu_dropout): Dropout(p=0.6, inplace=False)
      )
      (10): NeuralDecisionTree(
        (decision_fn_1): Linear(in_features=96, out_features=64, bias=True)
        (activation_fn_1): Tanh()
        (dropout_1): Dropout(p=0.2, inplace=False)
        (decision_fn_2): Linear(in_features=64, out_features=64, bias=True)
        (activation_fn_2): Tanh()
        (dropout_2): Dropout(p=0.2, inplace=False)
        (decision_fn_3): Linear(in_features=64, out_features=32, bias=True)
        (activation_fn_3): Sigmoid()
        (mu_dropout): Dropout(p=0.6, inplace=False)
      )
      (11): NeuralDecisionTree(
        (decision_fn_1): Linear(in_features=96, out_features=64, bias=True)
        (activation_fn_1): Tanh()
        (dropout_1): Dropout(p=0.2, inplace=False)
        (decision_fn_2): Linear(in_features=64, out_features=64, bias=True)
        (activation_fn_2): Tanh()
        (dropout_2): Dropout(p=0.2, inplace=False)
        (decision_fn_3): Linear(in_features=64, out_features=32, bias=True)
        (activation_fn_3): Sigmoid()
        (mu_dropout): Dropout(p=0.6, inplace=False)
      )
      (12): NeuralDecisionTree(
        (decision_fn_1): Linear(in_features=96, out_features=64, bias=True)
        (activation_fn_1): Tanh()
        (dropout_1): Dropout(p=0.2, inplace=False)
        (decision_fn_2): Linear(in_features=64, out_features=64, bias=True)
        (activation_fn_2): Tanh()
        (dropout_2): Dropout(p=0.2, inplace=False)
        (decision_fn_3): Linear(in_features=64, out_features=32, bias=True)
        (activation_fn_3): Sigmoid()
        (mu_dropout): Dropout(p=0.6, inplace=False)
      )
      (13): NeuralDecisionTree(
        (decision_fn_1): Linear(in_features=96, out_features=64, bias=True)
        (activation_fn_1): Tanh()
        (dropout_1): Dropout(p=0.2, inplace=False)
        (decision_fn_2): Linear(in_features=64, out_features=64, bias=True)
        (activation_fn_2): Tanh()
        (dropout_2): Dropout(p=0.2, inplace=False)
        (decision_fn_3): Linear(in_features=64, out_features=32, bias=True)
        (activation_fn_3): Sigmoid()
        (mu_dropout): Dropout(p=0.6, inplace=False)
      )
      (14): NeuralDecisionTree(
        (decision_fn_1): Linear(in_features=96, out_features=64, bias=True)
        (activation_fn_1): Tanh()
        (dropout_1): Dropout(p=0.2, inplace=False)
        (decision_fn_2): Linear(in_features=64, out_features=64, bias=True)
        (activation_fn_2): Tanh()
        (dropout_2): Dropout(p=0.2, inplace=False)
        (decision_fn_3): Linear(in_features=64, out_features=32, bias=True)
        (activation_fn_3): Sigmoid()
        (mu_dropout): Dropout(p=0.6, inplace=False)
      )
      (15): NeuralDecisionTree(
        (decision_fn_1): Linear(in_features=96, out_features=64, bias=True)
        (activation_fn_1): Tanh()
        (dropout_1): Dropout(p=0.2, inplace=False)
        (decision_fn_2): Linear(in_features=64, out_features=64, bias=True)
        (activation_fn_2): Tanh()
        (dropout_2): Dropout(p=0.2, inplace=False)
        (decision_fn_3): Linear(in_features=64, out_features=32, bias=True)
        (activation_fn_3): Sigmoid()
        (mu_dropout): Dropout(p=0.6, inplace=False)
      )
    )
  )
)
start training
Batch 100: Loss = 9.7568, Time Elapsed = 20.96s
Batch 200: Loss = 9.3704, Time Elapsed = 17.05s
Batch 300: Loss = 8.9201, Time Elapsed = 16.74s

Epoch 0:
Metric	HR@1	MRR@1	NDCG@1	HR@10	MRR@10	NDCG@10	HR@20	MRR@20	NDCG@20
Value	8.69	8.69	8.69	22.69	12.96	15.28	26.48	13.23	16.25
…
